Trained_Model_Paths/CNN_model.pth (torch, 324012 bytes, 8 tensors)

conv1.weight f4 [16, 1, 5, 5]
00000000: 1528 b43d f92d 473c c3e4 233e da11 69be
00000010: 6b40 17bc e5fc f1bd c208 c23e 9c51 19be
00000020: 9098 56bd 416e 8dbe f840 19bd 3dcd a73e
00000030: bf42 c83d 38d3 85be f8fe c7bd feac d9bd
00000040: eae0 9b3e 04dc e93e addb 9f3c 51d1 72be
00000050: bb41 9cbe ffc6 b43d ff13 0c3e d88c 9f3e
00000060: 9b91 5b3e cf55 2ebe af25 81be afeb 2ebe
00000070: d4fa 6dbe 5db5 813d e883 26be a236 7cbe
00000080: 8cf4 82bd 2335 04be fd60 86bd 528d ce3e
00000090: ffd3 b73e e56a b33e e3cb b13e d17d 67bc
000000a0: 42a9 a23e 2858 463e 055f 37bd 26ab 1cbe
000000b0: c373 c73d 53eb acbe 81bd 2dbd 2c16 20be
000000c0: 32a9 8bbc 82c0 fc3d 9c5e 6cbe 4f12 1dbe
000000d0: 9713 833d e33b 913e 349b ba3d 1677 b7be
000000e0: 9780 cb3e 5845 043e c63b 5d3e e5e9 303e
000000f0: 03e1 893e eeb0 b73e a200 1dbe a9bf 09be
00000100: 829c 943e ca7d f03d 21a9 8dbb f8a7 eabd
00000110: 22e7 a3be cbff e4bc 2e32 383c 40b3 a1be
00000120: 0da1 54be 6a26 603c 0cf1 26be 5e29 d33d
00000130: 1c86 b1bd c758 4ebd be9f 3c3d 7f26 0cbb
00000140: 51fd 36be 5fc2 b2be 9603 cfbe d69b 33be
00000150: f22b c83d 7c61 013d 2cff a83d 2e7e 8bbd
00000160: a694 ab3e fb82 f9bc 3082 423e b695 043e
00000170: b2d3 9c3e 91df 283e b5f0 50bd d905 443e
00000180: 6c23 ff3d 407b 473e ac25 67be 3335 72be
00000190: bd49 b9bc 39c0 193e 7b07 92bd 55f1 83be
000001a0: 6538 a6be 260e fbbd 06fa 253c 9485 0e3e
000001b0: 580f b23d 5fa9 123e cfc8 203e b7cb 683c
000001c0: 93e6 9d3e b434 bf3e a928 9c3e d2ce 003e
000001d0: 9467 153e 3d70 7f3d a27b 903d ee25 a13e
000001e0: d82c 73be a79c b6be 45ca c4be bd82 c5be
000001f0: 55be 61be a1d2 0b3c 3c19 9d3d 380e 0d3e
00000200: 8972 4c3e 0fbc 483d 7824 77be 6581 d3bd
00000210: 5b9b 993e c06e b73d 738d 36be 7da5 47be
00000220: d136 8d3e 7e18 bd3e 0d61 163e f7cc bebe
00000230: e513 a53c 717c 2d3e b827 e1bc b663 203c
00000240: 8d6c 87be 3e95 d43d 2eea 9d3e 1bad d4bd
00000250: 8a13 c53d d6b0 19be c5d8 b1bd da06 8a3d
00000260: 4a71 6c3e 427e ab3d 1e63 6abe 2df4 693e
00000270: 2836 413e 6644 3e3e ee3d 93be e7d6 d4be
00000280: 8b78 79be 68f0 8dbe fe12 823e 8955 b63e
00000290: 0572 f83d 05fd 803d 75b3 8abe 722f 123d
000002a0: 01d2 713e 53ec 473e 56ba cb3b 6b3f 803d
000002b0: c0d5 84be 360c 143e c197 4abe efbf ea3c
000002c0: a17b 4fbd 3d69 23be b25b 333d 9ddc 9fbd
000002d0: 2630 083d 9522 adbd ba2d bdba f657 37be
000002e0: 7a02 bebc 25e2 d2bb a556 7dbd 5eb9 8ebd
000002f0: a1f2 6bbd 0f00 46bd 9e18 02be db54 7ebd
00000300: aaad 3e3d f9f2 cebb fd54 42ba 832f 233c
00000310: 2afa 953d 0f4f 28bd 866e d23d 895b da3d
00000320: 7ade 173d 8b30 14be 63dc 573e 1849 88bd
00000330: 1c24 9c3d dfb5 86bc ca2a d33d 4ec6 f33d
00000340: 6226 1c3e 60ad 4f3d 95d7 17be 69ad 0a3e
00000350: 34c8 023d 917e 0b3e a0d0 493c 6162 76be
00000360: f470 9ebb 40ea 3e3e 9352 6b3e 8c87 8bbc
00000370: 9dbd 77be 7eed 18be 2a84 f2bd 65da 033e
00000380: 2d60 38be cee7 893d b007 eabc 48fc 4d3e
00000390: 4946 983e 2e72 f63d f756 b7bd 7e3c 14be
000003a0: 6a6d b3be 2070 df3d e480 3f3e e495 f63d
000003b0: a4bf 4f3d d7da b7be 5410 5abe 9546 1b3e
000003c0: db47 7bbb a615 64bd 32f7 07be 03e0 90be
000003d0: 755c c6bd e8ad 113e 1f74 a03e a421 9f3e
000003e0: c2fb f1bd f948 2cbe 4608 f43d 1b9f 243e
000003f0: 77d7 3ebd 48cd b4bd 145e 2d3e d2c3 b03d
0.087967075 0.012156957 0.16005234 -0.22760716 -0.009231667 -0.11815814 0.37897307 -0.14972538
-0.05239159 -0.2762318 -0.037415475 0.32773772 0.09778356 -0.2613771 -0.09765428 -0.10628699
0.30445033 0.4567567 0.01951393 -0.2371266 -0.30518898 0.08827018 0.13679503 0.31162143
0.21442263 -0.17024921 -0.25224063 -0.17082094 -0.23240215 0.063334204 -0.16261256 -0.24630216
-0.063943 -0.12910895 -0.06561468 0.40342194 0.35903928 0.35042492 0.34725866 -0.014129118
0.31769758 0.19369566 -0.044768352 -0.15299663 0.09738877 -0.33773288 -0.042417053 -0.15633458
-0.017048452 0.123414055 -0.23082966 -0.15339015 0.06400221 0.28366002 0.09111634 -0.35833043
0.39746544 0.12917078 0.21604833 0.17276724 0.26929483 0.35877174 -0.15332273 -0.13452019
0.29025656 0.11742742 -0.0043231403 -0.11457819 -0.32012278 -0.027954003 0.0112424325 -0.3158207
-0.20764561 0.013681034 -0.1630289 0.103106245 -0.086681575 -0.050377633 0.04605078 -0.002138525
-0.1787007 -0.34913918 -0.40432423 -0.17539915 0.09774007 0.03158711 0.08251795 -0.06811176
0.33511847 -0.030457964 0.18994975 0.12947735 0.3063026 0.16491534 -0.051010806 0.19142856
0.12457928 0.1948061 -0.22572964 -0.23653106 -0.022618169 0.15014733 -0.07130333 -0.2577006
-0.324649 -0.12258558 0.010130411 0.13918144 0.08694333 0.14322422 0.15701602 0.014208726
0.30839977 0.37344897 0.3049977 0.12578896 0.14590293 0.0623629 0.07054831 0.3147425
-0.23747575 -0.3566639 -0.3843557 -0.38576308 -0.22045262 0.008534105 0.07670829 0.13774955
0.19965567 0.04900747 -0.24135005 -0.103274144 0.3000134 0.08956671 -0.17827396 -0.19496723
0.27580884 0.3693275 0.1468546 -0.3726575 0.020151088 0.16942002 -0.02748476 0.009789398
-0.26450005 0.10380028 0.30842727 -0.1038458 0.096228674 -0.15008864 -0.08683924 0.06739588
0.23090091 0.08373691 -0.22889373 0.22847052 0.18868315 0.1858078 -0.28758186 -0.41570207
-0.2436239 -0.27722478 0.25405115 0.35612133 0.121311225 0.0629826 -0.2709004 0.03568978
0.23615266 0.19523744 0.0062172813 0.06262096 -0.25944328 0.14457783 -0.19784452 0.028655974
-0.05065501 -0.15958114 0.04378862 -0.078057505 0.033249043 -0.084538616 -0.0014433183 -0.17904648
-0.02319454 -0.00643565 -0.06185021 -0.0696895 -0.057604436 -0.0483399 -0.12704703 -0.062092643
0.046552338 -0.0063155857 -0.0007413177 0.009960058 0.07323106 -0.04109102 0.10274987 0.1066199
0.037077405 -0.14471643 0.21080165 -0.066545665 0.07624075 -0.016444145 0.10310896 0.11903058
0.15249017 0.050702453 -0.14828332 0.13542713 0.03192921 0.136225 0.0123178065 -0.24060966
-0.0048352424 0.18644047 0.22980718 -0.017032407 -0.24193425 -0.14934346 -0.118416145 0.1287628
-0.18005438 0.06733666 -0.028568119 0.20115769 0.29741123 0.12033497 -0.08952134 -0.14476201
-0.35044414 0.10910058 0.18701512 0.12040308 0.050719872 -0.3590915 -0.21295291 0.15163644
-0.003834239 -0.055684708 -0.13277891 -0.28295907 -0.096856035 0.14226496 0.31338593 0.31080353
-0.11815597 -0.16824712 0.119156405 0.16076319 -0.046592202 -0.08828217 0.16930419 0.086311

conv1.bias f4 [16]
00000000: f309 b3bd 91ff 4ebe 5720 263d 1c70 453d
00000010: 6926 00be c46e 5c3d 18cf 05bc 49ab 93be
00000020: 72b1 253d 6033 f4bd dfa5 49be 3e78 ecbd
00000030: d0f7 edbb 0224 94bd 65a3 633d 10d2 4ebe
-0.08742132 -0.20214678 0.040558185 0.04820262 -0.12514652 0.05381657 -0.008167051 -0.28841618
0.04045243 -0.119238615 -0.19692181 -0.11546372 -0.0072622076 -0.072334304 0.055575747 -0.2019732

conv2.weight f4 [32, 16, 5, 5]
00000000: b87a 45be 966c 803c 5500 cd3b 7f92 18bd
00000010: 2d11 d43d b71b eabc 05b1 883c cf83 813d
00000020: dedf febc 0e24 603d be85 e23d 12b1 a13d
00000030: 7d1c 803c 0c74 6ebc c019 37bc 4131 bbbd
00000040: 20ac ce3c f3dc 86bc 5f62 d2bd b0d5 8fbd
00000050: f2e5 49bd fb4f 01be 839a 0b3c d3f6 2a3d
00000060: 0546 20bd 4114 09bc 9c46 d23c 99bf a8bc
00000070: 0930 8cbd b900 c4bd 496a 8b3c e9f9 1d3c
00000080: 01b6 403a 7e6b 73bd 865c 1abe 680d 9f3c
00000090: 9ca1 ad3c 1329 2ebd 58ac 3cbe 2abe 7bbe
000000a0: 88b3 aabd c98a 3bbd ae14 4d3d 35d8 a6ba
000000b0: fa8e a0bd d1c0 1dbd a646 9f3c 7609 ae3d
000000c0: 8c91 253d 9b5f 0dbe 209f 4abd 5254 bcbd
000000d0: c561 53bd 16d9 073e 867c d13d 9179 95bd
000000e0: ba5c b1bd 3194 d93d 35f8 ac3d ccaa 013e
000000f0: 1234 bb3d 8b4e 0a3e 6715 053e f87a 813d
00000100: 48bd b6bd 150f c53d 1166 b43c 2c90 1cbd
00000110: 3a2d 4bbe b8eb c2bd 9450 4ebe 7848 80be
00000120: b75e 45be ad84 a5bd 3f87 c6bd a9e3 83bd
00000130: f3e4 2dbd 3bbe cabc d357 ed3c 47c9 d83d
00000140: 8667 ffbc 7681 b0bb f093 553d da76 493d
00000150: f546 a1bd 52c1 253c 109b 0a3d f755 2fbe
00000160: cb2c b5bd f851 9fbd e1f2 27bd 10fd f6bd
00000170: 3f28 fd3d 24e8 633e 32df a03c f294 fa3d
00000180: 0b3f a83d d2fe 4e3e 997f 593e 52fa 4d3d
00000190: a0a3 1dbd ed00 51be 2001 fdbd df6f 71bd
000001a0: a98c adbc d8d7 8dbd c458 e93d 1b69 183e
000001b0: b05e 82bd c76f 99bd 460d f93d 54f5 ba3d
000001c0: fda6 2d3e fd2b 25bd e0aa cbbd b805 b53b
000001d0: 3564 f6bb b6b2 873c 7425 1fbe bb2f a1bd
000001e0: 06ea 84be a42b 26be 9602 c8bd 9cb2 94be
000001f0: 5621 67be 9560 84bd d9c2 a8bd c5c9 9fbc
00000200: b2ae 393e 83b3 863e e157 c3bd e3ab 8fbd
00000210: d142 883d 9c3f f53d 5fa4 453e f710 28bd
00000220: c6f7 58bd 3e33 3b3c e5c1 ecba 5324 aebd
00000230: bc8c e6bd 98a2 42be 755e ffbd 49c9 12be
00000240: a085 a9bd 4ea6 dbbd 9c34 abbd b66f 783d
00000250: 22b6 2e3d 1b37 b7bd b4b1 fcbd d3dc 0dbd
00000260: b80b 5ebc 7310 93bc 15a1 0cbe 1acf 17be
00000270: 1317 f93c 2cc2 8ebc b59f 0fbe 6e00 dfbd
00000280: 4ac6 2c3d 2431 ccbd 450e 0dbd aa50 bc3c
00000290: fc4a 30bd 150a 823d bf05 d93d 844e 193e
000002a0: e3b0 a13d eb30 85be cc7f abbd 999e 6d3d
000002b0: f01d ccba da45 3bbe c0c0 41be 77ab 17bc
000002c0: 3941 e13b 9164 6fbd 3daa 12be 1e4c ccbd
000002d0: f041 673c a6bf 6a3c 3b92 1bbe 59ef eebd
000002e0: badd a1bc 819b 76bd c938 ecbc 4beb 91bc
000002f0: 1168 d3bb c585 b33d d635 b0bc 0dd7 e9bc
00000300: 2975 833d b3ff c23d 1c3e 1d3d 7767 783d
00000310: a714 283d cf07 2d3d 674d 0b3c c420 4a3d
00000320: 47d3 f9bc 4132 dabd eb64 813d 8dec aa3d
00000330: 0f37 cb3b 805b debd 5605 283d d5bd 043e
00000340: 1705 a83d 53d7 9bbd 0137 2c3d 688c 0b3e
00000350: 76e0 a43d 21dc e93c fcce 35be d457 3c3d
00000360: 35b4 6fbc 4619 d1bd ca1d 34be ec33 41be
00000370: 671e 39be 7884 2abe c7fb 4fbd e4ec 10be
00000380: e293 43be 389a 26bd ed6c 12be cca1 7cbd
00000390: ed82 ab3c 3032 82b9 4795 30bd eeaf ca3b
000003a0: 061d c0bc dad9 b8bd dcdc a1be 6fe8 6ebc
000003b0: c11c 2d3e 0696 003e 7a54 173c 5f5f 18be
000003c0: f8a5 443d d673 6b3d 166d a23e 1a8c 623e
000003d0: 56bc 45bd e62e a73c e611 9abd 65a1 9cbd
000003e0: 9991 583e 97cb 073e a769 12bc 1645 97bb
000003f0: 41d5 7c3b e421 94bd 4593 18bd b8b5 53bd
-0.19285095 0.015676778 0.006256143 -0.037249085 0.103548385 -0.028577669 0.016685972 0.063239686
-0.031112608 0.054721884 0.110606655 0.078951016 0.015638584 -0.014554035 -0.011175573 -0.09140254
0.02522856 -0.016462779 -0.10272669 -0.070231795 -0.04929156 -0.12628166 0.008520725 0.041739296
-0.039129276 -0.008366645 0.025668435 -0.020599173 -0.068450995 -0.0957045 0.017018454 0.009642103
0.00073513394 -0.059428684 -0.15074357 0.019415572 0.021195225 -0.04251964 -0.18425119 -0.2458426
-0.08335024 -0.045786653 0.05006855 -0.001272923 -0.078397706 -0.038513962 0.019442867 0.08497898
0.040422007 -0.13806002 -0.04946816 -0.0919577 -0.051606912 0.13266405 0.10228829 -0.072985776
-0.08660264 0.106239684 0.08445779 0.1266281 0.09140791 0.13506524 0.12996446 0.063222826
-0.08922821 0.09622017 0.022021325 -0.03822343 -0.19841471 -0.09517616 -0.20147926 -0.2505529
-0.19274412 -0.080819465 -0.09693765 -0.06439907 -0.04245467 -0.024748912 0.028972542 0.105852656
-0.031177294 -0.0053865267 0.052143037 0.04918561 -0.07874862 0.010116892 0.033839285 -0.17122637
-0.08846434 -0.07779306 -0.04100311 -0.120599866 0.12361192 0.22256523 0.019637678 0.1223544
0.082151495 0.20214394 0.21240081 0.050287552 -0.038486123 -0.2041051 -0.1235373 -0.05894458
-0.021185236 -0.069259346 0.11393884 0.14883845 -0.063657165 -0.07492023 0.12160735 0.09128824
0.16958232 -0.040325154 -0.09944701 0.0055243634 -0.00751927 0.016564708 -0.15541631 -0.07870432
-0.25959796 -0.16227585 -0.09766118 -0.29042518 -0.2257131 -0.06463734 -0.08240289 -0.01950539
0.18133047 0.26308832 -0.09538246 -0.07015207 0.06653369 0.11975023 0.19300984 -0.041031804
-0.05297067 0.011425791 -0.0018063156 -0.08503022 -0.11257312 -0.19007337 -0.12469188 -0.14334597
-0.0827744 -0.107250795 -0.08359644 0.06065341 0.042654164 -0.089460574 -0.12338582 -0.034634423
-0.013552599 -0.01795218 -0.13733323 -0.14825097 0.03040651 -0.017426573 -0.14025767 -0.10888754
0.04218129 -0.0997031 -0.034437437 0.022987682 -0.04304026 0.06349579 0.10596799 0.14971358
0.078950666 -0.26013884 -0.08373985 0.05801258 -0.0015572887 -0.18288365 -0.18921185 -0.009257189
0.00687423 -0.058445517 -0.14322753 -0.09975456 0.014114842 0.014327919 -0.15192501 -0.11666746
-0.019759048 -0.060206894 -0.028835671 -0.017812392 -0.0064516147 0.08765749 -0.021510046 -0.028544927
0.06418831 0.09521427 0.03838931 0.060645547 0.04103532 0.042243775 0.008502341 0.049347654
-0.030496253 -0.106541164 0.06318077 0.083459 0.006201632 -0.10857296 0.041020714 0.1296304
0.08204096 -0.07609429 0.042044643 0.1362778 0.08050625 0.028547348 -0.1775474 0.045982197
-0.014630367 -0.10209899 -0.17589489 -0.18867463 -0.18078004 -0.16652095 -0.050777223 -0.14152867
-0.19099382 -0.04067442 -0.14299364 -0.06167774 0.020936454 -0.00024832925 -0.043111112 0.0061855232
-0.02345134 -0.09025927 -0.31613815 -0.014581784 0.169055 0.1255723 0.009236449 -0.14880131
0.048009843 0.057483517 0.3172385 0.22123757 -0.048275314 0.020408105 -0.07522945 -0.07647971
0.21149291 0.13261257 -0.008936322 -0.00461639 0.0038579258 -0.072330266 -0.037249822 -0.051686972

conv2.bias f4 [32]
00000000: 7eea e53a 8bd6 713c 413b a33c a5e7 f0bc
00000010: 0430 96bd a80e 2ebd 823c 4a3d 9523 fdbc
00000020: 9ff2 babd 329a a9bb 832a 873a aa81 59bd
00000030: a4fd 48bd e45d 5abd bc0e 40bd 29e2 acbc
00000040: 33c9 0abd c80d 52bd a95b 2e3b fbf8 abbd
00000050: 91f9 2cbd 6223 b2bc e02b 95bb 4b5b 9ebc
00000060: 9698 0cbd bc73 63bd 5faa ccbd 6d19 87bc
00000070: f62f aebd 423e 543c 878f 00bd 5acf efbc
0.0017541198 0.014760624 0.019925715 -0.029407332 -0.07333377 -0.042494446 0.04937411 -0.030900756
-0.091283076 -0.005175852 0.0010312352 -0.053102173 -0.049070016 -0.053312197 -0.04688905 -0.021103935
-0.033883285 -0.051282674 0.0026604927 -0.08397099 -0.042230193 -0.021745387 -0.0045523494 -0.019330641
-0.034325205 -0.055530295 -0.09993433 -0.016491616 -0.085052416 0.012954297 -0.03138688 -0.029273678

fc1.weight f4 [128, 512]
00000000: 1570 3cbd 8b76 013b da65 b13c 40d0 fe3c
00000010: 0b13 45bd de5b 08bc c683 b93c 0497 923c
00000020: 381f 5cbc c67e 78bb c8a3 e6bc 9ebc 96bc
00000030: 369a 073c 6160 30bd 76d0 6a3c d4b9 22bd
00000040: 39e3 bd3c daa7 3cbd d8ec 0a3d 08a6 67bc
00000050: 85e2 d9bc f611 49bd 4f5d 003d 1584 0b3d
00000060: 959c 0b3d c22c 2dbd f05f 2fbd d3d5 63bc
00000070: 3d0a b0bc e6c3 4cbd a564 6ebc e0c5 18bd
00000080: f4fb a6bb 54d1 903c da70 ca3c 518a 12bd
00000090: 4c24 e2bc 01c4 0abd dae1 37bd f9e0 4bbd
000000a0: 19a5 01bd 2288 e6bb 3d17 0d3d 653d 3f3c
000000b0: 98e1 98bc 309f 0e3d 8313 3e3b ab80 dcbc
000000c0: ba53 e4bc 23b5 85bc 8a73 083d 283d 283c
000000d0: 6019 06bd 24f5 d3bc 7881 01bd 40cc 8ebd
000000e0: f384 91bd 9115 71bd 7b17 78bd f5ed f03c
000000f0: fa7e 553c 7c30 343c 8e1e 8bbd 7402 2abd
00000100: eea7 143d 7d3a 19bd 9a6c 8b3b 837c 20bd
00000110: 82b3 8cbc 33c5 d6bc 023d fcbb 1dfa 1c3c
00000120: 076c 163d b0e8 53bd db55 e0bc 70c0 88bc
00000130: 6817 f0bc 0965 d43c 757d 033c e388 9c3b
00000140: c0ce 7bbc 3347 9dbc 496d 093c 3bc2 983c
00000150: 4d88 dc3c 7395 15bb 0370 16bd e758 0d3d
00000160: 4a56 2ebc e202 3fbd 345b 31bb 6375 063d
00000170: e49d f83c d768 01bc 3aef 35bd 5e45 3bbb
00000180: 6a8c a83b b2ca edbc 7110 1fbd 2752 14bd
00000190: 2816 39bd 6352 453b 703f 8abc 48d6 80bc
000001a0: 539e bbbc 2fb9 b33b 5bc2 c3bc aa6c 8d3c
000001b0: e3fa 113d 8d09 eb3b afae 17bd 9306 753b
000001c0: 6ee3 f13c c5ab 12bc f507 4dbc 5e78 cdbc
000001d0: cadc 2bbd 4fa7 28bd 9efd 92bc e77c be3c
000001e0: 1405 cf3c df15 8a3c e8a7 87bc 20d9 3bbd
000001f0: 4641 1b3d e0e4 eb3c ee8e a2bc 11e8 7fba
00000200: e7cc 9bba eaec c33c ae4e 443c a5b7 c83b
00000210: e5a9 903b 4752 6b3c 748c b23c f4be a83a
00000220: c72a 993c 0e8e 35bd c275 dc3c b2a8 56bd
00000230: 6dce c63c bec4 80bc 753a efbc f527 20bd
00000240: a19f 45bd 8dd4 d6bb 807a d1bc 6df0 8bbc
00000250: 8ca9 babc 32db a93b c1fc 1bbb 264f d4bc
00000260: 9c85 c5bc c98b 49bc d598 003c a2bf 783c
00000270: 5309 24bd 3369 e03c df03 03ba 14e4 c139
00000280: 84e5 79bc ed19 03bd 2c9b e6bc db43 07bd
00000290: 4a68 6ebb 0b20 72bc 5ed6 f9bc 0dce 9dbc
000002a0: cb6d 0a3c 5dfd 943c 3503 373c c4e2 35bc
000002b0: 835c c5bc cd8a 11bb 0ff0 c43b ae3f c83c
000002c0: f554 b23c 392a 29bb d0af 19bd c631 ddbc
000002d0: 63f6 363c 5b6f 083c 34e0 03bd 8e12 9cbc
000002e0: 8dae 073c df99 e43c 9242 663c cdcb 0bbd
000002f0: 0496 d3bc 9c60 7a3c c72b 3ebd 4fb8 a83c
00000300: 25cc 40bd 42d9 aa3b 09b7 21bd b881 04bc
00000310: e178 3ebd 95f1 ba3b 05bb 0d3d 77c2 113d
00000320: cc8a a43c ed23 dabb e81c 3cbb df58 1dbc
00000330: ae2c a23c 896f 923c ba98 6cbb 437c 183c
00000340: 89e6 693c 999f 1cbd 8de4 f4bb 61c5 59bd
00000350: 4789 9e3c dc5e 78bc 15eb abbc 2c05 023d
00000360: d6fe 2abd f8b3 e6bc 1d30 9fbb 00c6 7bbc
00000370: 0c43 0bbd 345e 0dbd f7c5 08bd 8581 27bc
00000380: e55e cd3c 2f1f 863c 2198 00bd e831 053d
00000390: eba0 f3bc ef88 48bc 40c2 05bd f26c 12bd
000003a0: 29ce 19bd 47c7 b4bc f214 25bd 13fa c8bc
000003b0: aec1 13bd 260d 93bc b237 b93c a0e1 fabc
000003c0: 529e fb3b a08e 943c b7b2 733a 8e92 20bd
000003d0: 0c07 76bc a92b 9b3b c6bc 38bd 9fb6 97bc
000003e0: 510a d5bc 2c8f 2fbd 1661 2abd 5466 473c
000003f0: 9ed4 32bd 3b66 88bc d246 91bc 1083 d13c
-0.046005327 0.0019754495 0.021655012 0.03110516 -0.048113864 -0.008322684 0.022645842 0.017894275
-0.0134351775 -0.003791736 -0.028154269 -0.018400487 0.008276513 -0.043060664 0.0143319275 -0.039728
0.023179637 -0.046058513 0.033917278 -0.014138706 -0.02659727 -0.049089395 0.031338986 0.03406151
0.034084875 -0.042279013 -0.042816103 -0.01390596 -0.021489257 -0.04999151 -0.014550363 -0.037298083
-0.005095953 0.01767794 0.024712015 -0.03577644 -0.027605198 -0.03387833 -0.044893123 -0.049775098
-0.03165159 -0.0070352713 0.03444599 0.011672352 -0.018662259 0.03481978 0.002900333 -0.026916822
-0.027871955 -0.016321724 0.03331331 0.010268487 -0.032739043 -0.025873728 -0.03161761 -0.06972551
-0.07105436 -0.058858458 -0.060569268 0.029410342 0.013030762 0.010997888 -0.06792937 -0.041506246
0.036292963 -0.037409294 0.0042548897 -0.039181244 -0.01717544 -0.026217079 -0.0076977024 0.009581116
0.036724117 -0.05173558 -0.02738469 -0.016693324 -0.029308036 0.025927084 0.008025517 0.0047770604
-0.015369117 -0.01919899 0.008387872 0.018647304 0.026920462 -0.0022824674 -0.036727916 0.034508612
-0.01064069 -0.04663361 -0.0027062418 0.032826792 0.030348726 -0.007898531 -0.044417597 -0.0028575282
0.005143692 -0.029027317 -0.03883404 -0.03621116 -0.045187145 0.003010892 -0.016875952 -0.015727177
-0.022902643 0.005484722 -0.023896387 0.01726373 0.035639655 0.0071727694 -0.037031826 0.0037387952
0.029527392 -0.008952086 -0.012514104 -0.02508181 -0.041958608 -0.041175183 -0.0179432 0.023252917
0.025270976 0.016856132 -0.016559556 -0.045861363 0.037904046 0.02879566 -0.019843545 -0.00097620586
-0.0011886627 0.02391668 0.011981649 0.0061254078 0.0044147843 0.014362878 0.021795489 0.0012874291
0.018697156 -0.044324927 0.02691162 -0.052406974 0.024268353 -0.015718814 -0.02920268 -0.039100606
-0.048247937 -0.0065560997 -0.025571108 -0.017082417 -0.022785924 0.005183601 -0.0023801776 -0.025916647
-0.024111561 -0.012301394 0.007848938 0.015182408 -0.040047955 0.027393913 -0.000499783 0.0003698176
-0.015252475 -0.032007147 -0.028150164 -0.033023696 -0.003637808 -0.014778147 -0.030497726 -0.019263292
0.008449028 0.01818722 0.011170198 -0.011101428 -0.024091965 -0.0022207976 0.0060100625 0.024444427
0.021769026 -0.002581252 -0.037521183 -0.027001273 0.011167142 0.00832733 -0.03219624 -0.019051816
0.008281362 0.027905403 0.014053958 -0.034129906 -0.025828369 0.0152818225 -0.046428468 0.020595698
-0.047069687 0.0052138874 -0.039481197 -0.008087568 -0.046501998 0.0057050684 0.034602184 0.035585847
0.020085715 -0.0066571147 -0.0028703753 -0.009603708 0.019796696 0.01787545 -0.0036101774 0.00930697
0.014276155 -0.03823814 -0.0074735344 -0.05316675 0.019352568 -0.015159335 -0.02098612 0.031743214
-0.041746937 -0.028161988 -0.0048580305 -0.015367031 -0.033999488 -0.034513667 -0.03339192 -0.010223751
0.025069663 0.016372291 -0.03139508 0.032518297 -0.029739818 -0.012239679 -0.032655954 -0.03574843
-0.037550125 -0.02206768 -0.040303178 -0.024533307 -0.03607338 -0.017950606 0.022609565 -0.030625165
0.0076787854 0.018134415 0.0009296345 -0.039202265 -0.015016329 0.0047354293 -0.045101903 -0.018519698
-0.026005896 -0.04286115 -0.041596495 0.012170393 -0.0436598 -0.01665031 -0.017733965 0.02557519

fc1.bias f4 [128]
00000000: 4696 613c 6ed5 b4bc 2445 9f3b 71d4 7ebd
00000010: c581 4939 65c3 1e3d af42 11bd e02e 633c
00000020: 967b 98bd a91b 333b 9b7f 14bd 90a2 443d
00000030: 8f31 443d 1eb8 05bd 62df 613d a4e8 983d
00000040: fac9 b4bb 2128 5b3d 471f 043d 49d4 95bd
00000050: ea73 e53c 8eb9 823a 945d e93c f7fd 403d
00000060: 0e06 2cbd ba82 56bd 3657 05bc 960a a93d
00000070: 8566 3fbd e2de 8abb 7e17 4ebd a490 0cbd
00000080: 6816 39bd ca63 b43a a707 6dbc 02ac 8b3c
00000090: 69d1 b53b 7853 45bd 9db2 98bd 3fe3 543d
000000a0: 4360 7e3d 02ae d2bc 81c7 eb3c 1638 d43c
000000b0: 1be0 0a3c a9fa a9bb dce2 3ebc d9e5 44bb
000000c0: dd1b e4bc 6dbc acbd c1c3 3ebc 6732 a5bc
000000d0: 1de7 58bc b666 843c 7e9f d7bc 8dab 2fbb
000000e0: bb32 013d 4280 b33c 9731 91ba d184 ddbc
000000f0: 5499 b03c 6b9c 3cbb b75d 4ebd 89b6 40bd
00000100: aa58 823d 74b4 55bc cb28 05bd ed54 2dbc
00000110: 26c9 0abc 15cf c43c a400 dd3c 05f3 dfbc
00000120: 44ee babc 6ee7 113c 82b2 20bd 079c 10bd
00000130: 0443 1abd ebb6 8bbd ae4b 4d3c 6eee dbbc
00000140: 0ee5 cf3c d7e9 a7bc 7fb4 fd3b 601a cb3d
00000150: f960 f6bb a8cb 98bb a0dd 49bd 40c9 abbd
00000160: 7c90 473c 2de8 cabc bf11 153d 9f75 113a
00000170: a030 2cbc 720a 683c 3f02 a8bd 3499 36bd
00000180: 5790 293d e76b febc 3e3d ecbc 3320 ab3d
00000190: 85f4 67bb 0ebe f7ba 45db 23bd b13e af3c
000001a0: 65d1 ab3d 8be7 6abc b636 c7bc 5a01 cebc
000001b0: 511c 7c3c ddf5 423c be87 babb e45d 81bc
000001c0: baac e6bc b6c0 e83c 3cde 893d f429 9d3b
000001d0: b180 5c3d a838 91bc b5b5 de3b 5603 20ba
000001e0: b016 6ebd 9c93 5c3d f96c e6bc bcca 4e3d
000001f0: caf5 833d c171 2fbd 60a4 b4bc f0d4 1a3d
0.013768738 -0.022074427 0.004860537 -0.06221432 0.00019217197 0.03876056 -0.035463985 0.013866156
-0.07445447 0.002732972 -0.036254507 0.048006594 0.047898825 -0.03264629 0.055144675 0.07466248
-0.0055172415 0.053505067 0.03225639 -0.07315881 0.028009374 0.0009973512 0.028487004 0.0471172
-0.04199796 -0.052370764 -0.0081384685 0.08253972 -0.04672863 -0.0042379955 -0.050315373 -0.034317628
-0.045187384 0.001376265 -0.0144671565 0.017049793 0.0055486453 -0.048175305 -0.07455943 0.05197453
0.06210352 -0.025717739 0.028781654 0.02590565 0.0084762825 -0.0051873517 -0.011650767 -0.0030044226
-0.027845317 -0.08434377 -0.011643351 -0.020165635 -0.013238695 0.016162258 -0.026321169 -0.0026805133
0.03154252 0.021911744 -0.0011077401 -0.02704087 0.021557488 -0.0028779756 -0.050382342 -0.04704908
0.063645676 -0.013043512 -0.032509606 -0.01057933 -0.008470809 0.024024526 0.026977845 -0.02733756
-0.022818692 0.008905275 -0.03923274 -0.03530505 -0.037661567 -0.06821998 0.0125302505 -0.02684709
0.025377776 -0.020497246 0.007742464 0.0991714 -0.0075188843 -0.0046629496 -0.049283624 -0.08387995
0.012180444 -0.024768913 0.036393877 0.0005548838 -0.01050964 0.014162647 -0.082035534 -0.0445797
0.04139742 -0.031057311 -0.028837796 0.08355751 -0.0035393548 -0.0018901245 -0.040004034 0.021392198
0.08389548 -0.014337431 -0.02431808 -0.025147129 0.0153876105 0.011899439 -0.0056924513 -0.01579184
-0.028158534 0.028412204 0.06731841 0.004796261 0.053833667 -0.017727211 0.0067965635 -0.0006104013
-0.058127105 0.05385171 -0.028128134 0.05048631 0.06443365 -0.042833094 -0.022051036 0.03780073

fc2.weight f4 [10, 128]
00000000: ca38 a33c b705 7cbe a271 d9bc b129 e23d
00000010: d5db 29be 479c f2bd cbca 2d3e daef 7f3d
00000020: ef4f 943c c24f 03be 748d d6bc b7a3 4bbd
00000030: c0d1 d43d 4a1c 13ba 2f42 afbd 2b19 2c3e
00000040: 4a69 fb3d fa60 cd3d d323 84be 84cb 0e3d
00000050: f221 9c3c c8d0 c0bd 8760 35bb b7e9 a8bd
00000060: 5c0a 70bc edcd 383e 5727 abbd 2b74 993d
00000070: dc63 32bd a639 94bd b1a0 5cbe bc02 303e
00000080: edae 9e3b f801 66be 124b 60bd 96f9 493d
00000090: 8b91 963d 58a9 bcbc 4a4d 41be e7ab 993d
000000a0: 56a2 64bd 166c 2d3d 9b69 923d b99b 85bc
000000b0: ce76 663d b0bb f03d c3d2 4bbd ced6 1e3e
000000c0: c88f 83bc 6dc3 a43c ff61 71be d0b9 8a3d
000000d0: 3a0d 9d3d 3676 d03d 944f 8fbe 42b6 d13d
000000e0: 2abb 493d 0667 8e3d 26a7 4bbe 9b6d 143d
000000f0: fd51 473c a93b e83d 7a26 84bd 5284 fb3c
00000100: d112 113e 787e b0bc b62d f43d 1735 d9bd
00000110: cd21 a93d f47f 22be 4261 f63d 0dde 5f3d
00000120: 531d 38bc 561e 83be 5ebd b73d 76fa b0bd
00000130: 29a6 24be f5ab ef3c 1941 4c3d 86d5 babd
00000140: e67e 193d 9229 66be e3ec eabd f092 2cbd
00000150: 1eee 9abd 40e7 063d 706f d6bd 7f38 8abd
00000160: 0897 93bd b254 3abd 789a 8a3d 33ca 93bd
00000170: e9e4 c0bd d4fd 49bd 82e6 03be 4dff c2bc
00000180: c219 e9ba 2593 843d 2ff1 95bd 96bc 1dbe
00000190: 4ae8 17be ae6b e2bd f80b 5d3c 1838 c3bd
000001a0: 1e0e 7c3d 1fb8 d73d 386b 4dbd a8d9 0abd
000001b0: e522 493b cf23 7dbd c30a 14be 5055 9a3c
000001c0: 870d 6bbe 81d9 283e 72a8 23bd 4a81 98bd
000001d0: 99ba cdbd 1dee 26be a28e 11bc eee2 11bd
000001e0: 6e00 38bd 65dd d6bd 4e16 40be 873c 1cbc
000001f0: 7ee2 31be 6ba6 9fbd 3090 29bd ca79 04bd
00000200: 9c60 893c bffc 823c aa96 223d 5be0 033d
00000210: 8a40 7dbd d736 41bd d5b1 febc 7b55 643d
00000220: 3730 13bd 60c6 5cbe 868f 173c d405 d7bd
00000230: 80f7 c6bc 9804 1cbc 54ec b33c 47ba 073e
00000240: 7ff3 2bbe 5c18 1cbd 142f f23d 2229 a1be
00000250: 80dd 8b3d 9671 543d 5420 8d3d 15c2 5d3e
00000260: 36dd 253d 4f87 d33c 13b4 3ebd 9517 cb3d
00000270: 497a a8bd 88ce 703d d211 243d 372c 0b3d
00000280: 2d52 24bc 6460 cd3d 3875 203e 4d88 edbd
00000290: 532d e3bd 6590 963d eaa4 40be 0d8b b1bd
000002a0: 4330 d2b9 5c8d 8a3c f89e 653d 39f5 febb
000002b0: d070 01bd ba92 86bc f6d6 88be 6131 d23d
000002c0: c424 443d fd49 d5bc a657 253d bedf b63c
000002d0: a689 7c3c 6d48 1bbd b5f7 f23d 147b b33d
000002e0: 7cf6 57bd 2f13 37be f732 dd3d 103c 90bd
000002f0: bff1 2a3d 86a5 c6bd db8c acbd 76ec 7ebc
00000300: 9e28 733d 851f e23d 6b76 b53d fad8 43bd
00000310: 4b99 03be 4f0e 9fbd 30fc 15be eaa1 3bbd
00000320: 55c8 443e 4080 2ebd d3be 2bbd d078 143c
00000330: 9317 2abe 45fa 15be 20a7 fc3b af52 f939
00000340: 174b 3ebd 2f6d c73d 64de d03d 8a30 a53d
00000350: fece e73d e40c 8c3d a32c 3f3c d010 dcbc
00000360: 2fc9 a9bd 641f 98bb 8d2b 553d 5997 a6bd
00000370: e093 303d 9f7d 86bd 2c60 9bbd 821c b13b
00000380: 5d06 8cbc 7a87 a5bd c98a 4cbd 0deb 103d
00000390: 07e6 9d3d e579 47bd 4565 f1bd 9b05 1e3d
000003a0: f5a4 1c3d 1ed4 5e3d fe34 e1bd 3541 f93d
000003b0: 759f ce3c 6d75 d93c 5ae8 093e c393 31bd
000003c0: 0021 0cbe b713 63bd d8f0 8fbc aa51 16bc
000003d0: 9756 52bd 623f ab3d 48d3 dabd 9715 97bc
000003e0: 1382 abbc e9a0 04be a343 85bc 5c68 963d
000003f0: 567f 8f3d d60c 5fbc 423e 08be 9f17 cfbc
0.01992454 -0.24611555 -0.026543442 0.11043108 -0.16587766 -0.11846214 0.1697189 0.0624846
0.018104522 -0.12823394 -0.026190497 -0.049716678 0.10391569 -0.00056118204 -0.085575454 0.16806476
0.12275942 0.100282624 -0.25808582 0.034862056 0.019059155 -0.09414822 -0.0027675943 -0.082477026
-0.014650907 0.18047304 -0.08357113 0.074928604 -0.043552265 -0.07237558 -0.21545674 0.17188543
0.00484263 -0.22461689 -0.054759093 0.04931029 0.07351979 -0.023029968 -0.1887714 0.07503491
-0.055818878 0.042339407 0.07149049 -0.016309606 0.056265645 0.117545485 -0.049761545 0.15511629
-0.016059771 0.020112718 -0.23572539 0.06773722 0.076685384 0.10178797 -0.279904 0.10239841
0.04925076 0.06953244 -0.19887981 0.03623734 0.012165544 0.11339504 -0.06452651 0.030702744
0.14167334 -0.02154468 0.11922781 -0.10605829 0.082584 -0.15869123 0.12030269 0.054655124
-0.01123746 -0.25609082 0.08971666 -0.08641522 -0.1607901 0.0292568 0.04986677 -0.091227576
0.037474535 -0.22476795 -0.11470964 -0.042132318 -0.075649485 0.03293538 -0.10470474 -0.06749057
-0.07206541 -0.045490928 0.06767744 -0.07216301 -0.09418661 -0.049314335 -0.128809 -0.023803378
-0.0017784166 0.06473378 -0.07321393 -0.15403971 -0.14834705 -0.110556945 0.013491623 -0.095321834
0.0615369 0.10533165 -0.05015108 -0.03389898 0.0030690965 -0.061801728 -0.1445723 0.018839508
-0.22954379 0.16489221 -0.039955564 -0.07446535 -0.10045356 -0.1630177 -0.008884104 -0.035616808
-0.044922285 -0.104914464 -0.18758509 -0.009535915 -0.17371556 -0.077954136 -0.041397274 -0.03234271
0.0167697 0.01598966 0.039694466 0.032196384 -0.061829127 -0.04717144 -0.031090656 0.055745583
-0.035934653 -0.21560049 0.009250527 -0.104991585 -0.02428794 -0.00952258 0.021963276 0.13254653
-0.16792105 -0.03810917 0.11825386 -0.31476694 0.06829357 0.051866136 0.06890932 0.21656068
0.040494166 0.025821356 -0.04655845 0.09916607 -0.08226449 0.058790714 0.040056057 0.033977713
-0.010029358 0.10028151 0.15669715 -0.11598263 -0.11092629 0.0735176 -0.1881291 -0.086691
-0.0004009028 0.016913109 0.056059808 -0.0077806977 -0.031601727 -0.016427387 -0.26726502 0.102633245
0.047886625 -0.026036257 0.04036679 0.022323485 0.015413677 -0.037910867 0.118636526 0.0876371
-0.0527253 -0.17878412 0.108007364 -0.07042706 0.041734453 -0.0969954 -0.084253035 -0.015559306
0.059364907 0.11041168 0.08860477 -0.047814347 -0.12851445 -0.07766401 -0.14646983 -0.04580871
0.19217046 -0.042602777 -0.04193003 0.009062007 -0.16610555 -0.14646251 0.0077103525 0.00047554585
-0.04645833 0.09737622 0.10198668 0.08065899 0.113187775 0.06838396 0.011668357 -0.026863486
-0.08290326 -0.004642414 0.052043486 -0.08134336 0.043109775 -0.06566929 -0.07586703 0.0054050097
-0.017092878 -0.08082481 -0.049937043 0.035380412 0.0770989 -0.048700232 -0.11786894 0.038579565
0.038243253 0.05440151 -0.109964356 0.121706404 0.02522252 0.02654525 0.13467541 -0.043353807
-0.13684464 -0.055438723 -0.017570898 -0.009174744 -0.05135211 0.08361699 -0.1068483 -0.018442912
-0.020936048 -0.12952007 -0.016267603 0.07344124 0.07006709 -0.0136139 -0.13305 -0.025279818

fc2.bias f4 [10]
00000000: dc85 54bb cb34 09bb 60ea 7e3c e2ee e1bb
00000010: f6d7 cdbd ef6d d4bc af45 c5bd e0b3 a13c
00000020: 1075 3f3c fec2 d2bd
-0.003242842 -0.0020936008 0.015558809 -0.006894932 -0.10050957 -0.025931327 -0.09632432 0.019739091
0.011685625 -0.10291098
