Trained_Model_Paths/LeNet5_model.pth (torch, 181310 bytes, 10 tensors)

conv1.weight f4 [6, 1, 5, 5]
00000000: 4754 55be 2db0 1e3c 6ccd d9bd 725d d83d
00000010: 2635 a8bd a519 833c 8d69 02be daab 73be
00000020: 6ffe cebe 2e14 9fbe 7b2a a33c d5cb 61be
00000030: 82d0 33be ebdf 93be e651 c53d 8839 143e
00000040: f1be 063e 63c8 1ebe 7f0f 6c3e 05d1 b43e
00000050: ac89 393e e73f b83d eb0e 103f 8c69 f13e
00000060: f86a 803c ff39 053e 40c5 513e 44f6 343e
00000070: ea29 b03d 7107 323b 4e18 a3bd e551 02be
00000080: 677d c1bd 791c a6bd e2eb 0bbe d994 c7bd
00000090: 2c95 15be 4a96 67bd 3f46 8abd 0827 53bc
000000a0: 04b9 e1bd dcb3 febc 8833 35be b332 20bd
000000b0: e525 033e b604 18be a404 e3bd bb7b b43d
000000c0: 7da1 f73d 21ea 6b3d f5e4 933d ba8d 65bd
000000d0: b6ac 13be faad d73c a547 8d3d a8cf 373e
000000e0: 50d1 ddbd d10b ccbe ab26 89be 98c5 85bc
000000f0: a09a 3a3d 24ed 0ebe 660a 73bd 01d7 843e
00000100: ad89 5a3e d686 113e 0dc8 f13e 8028 cc3e
00000110: a576 bbbc 00f8 28be c33e c43d 3cb4 f4bd
00000120: 23f5 8bbd 424e 8b3d 6a1c ddbd 9c95 563b
00000130: 8132 363e 0234 9bbd 80e2 4e3e fef1 68bd
00000140: 424d 9cbd 4b83 3f3e 3c82 343e 385a 123e
00000150: d2dd 16be 9c79 813b 638d 733e 4a13 9f3e
00000160: 7fa9 1ebe 5e52 c1bd 5abf b13e 2693 d03e
00000170: 20eb 873c 9212 c3be bd7f 7ebe 4d01 913e
00000180: f543 9bbc 028b d1be 4e10 0fbe e9e9 24be
00000190: e71f c1bd d682 64bd bb15 6e3d ad68 693e
000001a0: 78c9 a33e a89e f93c b683 99be c0d9 55be
000001b0: 4fcb 373e b0c1 383e cdc6 bfbe b1cd 1dbc
000001c0: 96e8 1b3a aa9c 5a3e 3891 963e 0276 84bd
000001d0: a1dc 97be 590e 4d3c 83c3 0c3e 17a2 1e3e
000001e0: 30a1 6ebe be20 07be 6713 b3bc 88a2 173e
000001f0: d2b7 9c3e 760e 203e 348a c23e 0685 313e
00000200: 0a9d 9d3e 7746 1a3d 67b4 0d3e 32ea 893e
00000210: 2498 883e e859 893e 92f7 763e 821d 89be
00000220: 12fa 34be 1cbf 113d ac1c 1c3e 8996 b33e
00000230: 58f1 53be 442c b2be 6432 e8be b66f 9fbe
00000240: 7943 05be e730 a33c 813f 6fbe a438 b3bd
00000250: e9be 34be 848e b9bd
-0.2083293 0.009685558 -0.10634884 0.10564698 -0.08213262 0.01600344 -0.12735577 -0.23796025
-0.40428492 -0.31070083 0.019917717 -0.22050412 -0.17560008 -0.28881773 0.096347615 0.14475071
0.13158776 -0.15506129 0.23052786 0.3531572 0.18118924 0.089965634 0.56272763 0.47150838
0.015676007 0.13010405 0.20485401 0.17672068 0.086017445 0.002716508 -0.0796362 -0.12726553
-0.09447747 -0.081108995 -0.13664201 -0.09745187 -0.14607686 -0.05653981 -0.0675168 -0.012887724
-0.11021617 -0.031091623 -0.17695439 -0.03911085 0.12807424 -0.14845547 -0.110848695 0.08812662
0.12091348 0.05759633 0.072214045 -0.056043364 -0.14421353 0.026328076 0.06898431 0.17950308
-0.10830939 -0.39852765 -0.26787314 -0.016329572 0.04555762 -0.1395765 -0.05933609 0.25945285
0.21341582 0.14211592 0.4722294 0.3987465 -0.022883723 -0.16500854 0.09582283 -0.119484395
-0.068338655 0.06802036 -0.10796435 0.0032742983 0.17792703 -0.07578279 0.2020359 -0.056871407
-0.07631923 0.18702428 0.17627805 0.14292228 -0.14733055 0.0039512645 0.23784404 0.31069404
-0.15494345 -0.094395384 0.34716302 0.40737265 0.016591609 -0.38100106 -0.24853416 0.28321305
-0.018953303 -0.40926367 -0.13971063 -0.16104855 -0.09429913 -0.055788837 0.058126193 0.22793837
0.31989646 0.030471161 -0.299833 -0.20883846 0.1794865 0.18042636 -0.3745636 -0.00963156
0.0005947439 0.21348825 0.29407668 -0.06467821 -0.29660514 0.012515628 0.13746457 0.1549152
-0.23303676 -0.13196084 -0.021859838 0.14808095 0.30608994 0.15630516 0.37996066 0.173359
0.30783874 0.037664857 0.1383835 0.2693649 0.26678574 0.26826406 0.24117878 -0.26780325
-0.17673519 0.035582647 0.15245312 0.35075787 -0.20697534 -0.34799397 -0.45350945 -0.31139916
-0.1301402 0.01992078 -0.23364069 -0.08751038 -0.17650951 -0.09060386

conv1.bias f4 [6]
00000000: 28ea 6abd 9ccb 4cbe 7cb8 123e c99f 013e
00000010: 2bfa aabd 0284 af3c
-0.057352215 -0.19999546 0.14328188 0.1265861 -0.08348497 0.02142525

conv2.weight f4 [16, 6, 5, 5]
00000000: a003 013e 65b0 98bc ff51 c3bd 1703 603d
00000010: a8cf 593e 6a25 6d3c 5882 99bd 8fd2 52be
00000020: 8927 16bd 694b 4e3d f0bf 30be e0e5 b5bd
00000030: ca29 0dbe 17f7 25be ec36 23be d029 a03c
00000040: f855 7fbc 6a78 f2bd 1a34 a1be 06e5 32bc
00000050: 09e4 be3d 7ce2 3ebd 0801 ca3c 3dcb dabc
00000060: 8d3a ff3d ccee 06bd 1813 61bd 2c6c 65bb
00000070: 49b0 a6bd bdf4 80bd 4468 3ebd d8d3 0fbe
00000080: 7711 92bd 5d7a a8bc 758c f3bd 1cea 3fbd
00000090: af2f 1fbc 04af b2bd 1611 e0bc 94ad 67be
000000a0: d188 54bb c84e d03d 36e9 ccbc 17f8 26bd
000000b0: 922c e5bd d3da e73d 8c46 433c cef0 54bd
000000c0: 9232 783d c2da 8abd 7fe6 98bc 4633 393d
000000d0: d9dd 22bc 65f2 663e 7ff8 2c3e ba1f c13c
000000e0: b4d1 2cbd 57c4 a23d c873 7d3d 0f37 803e
000000f0: e742 c43d 344f 8c3d d2fe 563d 21f0 36bd
00000100: 9686 cf3d 26d6 213e 90e4 313e 23a8 633d
00000110: 7437 65bd a5fe ff3d 58be 993d 6e0e 9d3d
00000120: eec8 cabd b4b9 d93d fc03 be3d e3ac d0bc
00000130: fa2e 0ebe a86a 46be bffc 0ebd 4d98 0abe
00000140: 3deb 483d e99f f6bd 28c6 a13d 878f 053e
00000150: 3e93 a63c 99e2 043e c52b e9bd 67b0 203e
00000160: 5032 993d 030a d43d ac1b 42bc a403 8b3d
00000170: b4a7 103e 6b9b a83d f287 39bd c7d7 1cbe
00000180: 1c94 2ebd d0ae 823c 10b5 35be 176e 1bbe
00000190: 8e5d b83c a44d 4c3d d953 de3d eae0 a6be
000001a0: 71cc 5fbe cc1b 2f3e 5e43 d93d 3e2c 943e
000001b0: b1cc 603d a74e 3b3d 7ec7 c13c fbc0 583d
000001c0: 5753 6b3e b875 6a3e a5ca d33d 4aa5 fabc
000001d0: 42a3 05bd 3e7e 953d 77e9 1d3e 5c50 c0bd
000001e0: c4ed f4bd e162 0dbe 45ba 40bc 12f7 9abc
000001f0: 2367 febd f9a7 f63c c42b ae3d 9cfb 0a3e
00000200: 65c3 5bbe 0444 99be ad6d a63d b8e1 7d3d
00000210: 7e16 273c 1d19 40be 1651 14bf 8870 3b3d
00000220: 3583 efbd 61e0 6fbe 7fc8 6dbe c738 a8be
00000230: 6605 183e 77f8 063d 1e53 c53b fed9 cd3c
00000240: 9d05 f8bc 65cb 143e c357 4ebd 5676 b4bb
00000250: 1bb8 b43d ef19 3d3e 75a9 9cbd e9a8 1cbe
00000260: b418 04be e703 f6bc 7c55 87bd cd2e d83b
00000270: e4eb 623d 300d cebd 09b9 f5bd 465f 13be
00000280: 07ad ba3d 2d66 4cbe 5385 d5be 04fe d0be
00000290: 8d4d 08be ef6a 53bd 437d c9be 1d21 b5be
000002a0: 405f afbd 70bf 113e b253 513d 01c2 7bbe
000002b0: 819f c1bd 030f 743d 61b5 bc3d 36b7 34bd
000002c0: bebe a8bd 3512 0b3d 520e 9ebd 9c00 80bd
000002d0: a076 493d 2d96 48bd cab8 3abd 8be3 813d
000002e0: 2bd8 0bbd 7220 8f3d 0030 3e3d b730 4fbd
000002f0: 7053 863c fa52 933d 06eb 9d3d 249f 783d
00000300: dcc7 4abd 0317 f9bc 48ea 223c ec46 153e
00000310: 5fa7 3b3d 3d41 e1bc 9d40 8a3d dcbc 253b
00000320: 2b5a 163d 64ce edbc 07da c0bd 8e02 023d
00000330: de55 55bd e65b 7c3b 0218 dc3d 6771 98bd
00000340: b67d c8bd 0ce9 9fbc f40c 8d3d bfe7 bebd
00000350: 54e9 35be c7d4 b0bd c8f3 76bd 1972 4f3b
00000360: 1e7c 2dbe 82d6 05be 0a29 b73c 726f 323e
00000370: 52f4 b0bd 5ef9 50be ff17 3fbe 69b7 223e
00000380: 3610 823e b708 68bd 424c 62be c6b5 493d
00000390: c5e3 6d3e 4c22 f93d 1da4 38be c7a3 973d
000003a0: 3658 1c3e 9e25 cf3d cbe9 033e 93b3 573e
000003b0: d14b 193e 8c36 793d 85ca 053e ce2f 4abc
000003c0: 3381 813d bdca 29bd 1e13 61bd d99f 073d
000003d0: 9469 d1bd baeb 7c3d 8a92 b4bd 95d2 32bd
000003e0: 4b9f 28bd 10ff c53a f77e 5cbd 183e 273e
000003f0: 1f76 a33d 5736 843c 5295 17be 3a86 583d
0.12599039 -0.018638799 -0.09537124 0.054690447 0.21270621 0.014474252 -0.07495564 -0.20588134
-0.036658797 0.050364885 -0.17260718 -0.08881736 -0.13785473 -0.16207539 -0.1593892 0.019551188
-0.015584461 -0.118393734 -0.31485063 -0.010918861 0.09320838 -0.04660271 0.024658695 -0.02670824
0.124623396 -0.03294258 -0.05494985 -0.0035007102 -0.081390925 -0.0629668 -0.046486154 -0.14045656
-0.071322374 -0.02056616 -0.118920244 -0.046854123 -0.0097159585 -0.08724788 -0.027351897 -0.22624809
-0.0032430182 0.10171276 -0.025013547 -0.04076394 -0.11190142 0.11321034 0.011918675 -0.05198746
0.060595103 -0.06780006 -0.018664597 0.045214914 -0.009940588 0.22553404 0.16891669 0.023574699
-0.042192176 0.07947605 0.061877996 0.25042006 0.09583073 0.06851044 0.05248911 -0.0446626
0.10133092 0.15804347 0.17372346 0.05558027 -0.055961087 0.124997415 0.07507008 0.07668768
-0.099016055 0.10631123 0.09278104 -0.025473064 -0.13885108 -0.19376624 -0.034909006 -0.1353466
0.049052466 -0.12042219 0.078991234 0.13043033 0.020333882 0.12977065 -0.113853015 0.15692292
0.074802995 0.10353472 -0.011847418 0.06787804 0.14126474 0.082327686 -0.045295663 -0.15316688
-0.042621717 0.015952498 -0.17744851 -0.15178715 0.022505548 0.04987873 0.108558364 -0.3259347
-0.21855332 0.17100447 0.106085524 0.28940004 0.05488271 0.045729306 0.023654696 0.052918416
0.2298101 0.22896469 0.10341386 -0.030596394 -0.032626398 0.072994694 0.15421091 -0.09390327
-0.11959413 -0.1380725 -0.01176316 -0.01891664 -0.124220155 0.030109392 0.085044414 0.13572544
-0.21461256 -0.29934704 0.08126388 0.06198284 0.010198234 -0.1875958 -0.5793623 0.045761615
-0.11694948 -0.23425438 -0.23221014 -0.32855818 0.1484581 0.0329518 0.006021871 0.02512836
-0.030276114 0.14530714 -0.050376665 -0.005507271 0.08824178 0.18466924 -0.07649509 -0.15298809
-0.12900048 -0.030031158 -0.06608102 0.006597376 0.055400744 -0.10061109 -0.11998183 -0.14391813
0.091150336 -0.19960852 -0.4170328 -0.408188 -0.13310833 -0.05161565 -0.3935338 -0.35376826
-0.08563089 0.14233184 0.05110521 -0.24585725 -0.09454251 0.05958463 0.09214283 -0.044120036
-0.08239506 0.03395291 -0.07717575 -0.06250116 0.049185395 -0.048971344 -0.045586385 0.063422285
-0.0341417 0.0698861 0.046432495 -0.050583567 0.016397208 0.07193561 0.07710843 0.060698643
-0.049507007 -0.03040648 0.009943552 0.14577836 0.045813914 -0.027496928 0.06750605 0.002528957
0.036707085 -0.029029079 -0.094165854 0.031740718 -0.052083842 0.0038506924 0.107467666 -0.07443505
-0.097896025 -0.019520305 0.06887236 -0.09321546 -0.17764789 -0.08634334 -0.06029108 0.00316537
-0.16941878 -0.1307011 0.022358436 0.17425326 -0.086403504 -0.20407626 -0.18661498 0.15890278
0.25402993 -0.056648936 -0.22099403 0.04924562 0.23231418 0.12164745 -0.18031354 0.07404285
0.15268025 0.10114597 0.12882154 0.21064596 0.14970328 0.060843036 0.13065536 -0.012340499
0.06323471 -0.041453112 -0.054949872 0.033111427 -0.102252156 0.061748244 -0.088170126 -0.043657858
-0.04116754 0.0015105922 -0.05383202 0.1633228 0.07981514 0.016139193 -0.14803055 0.052862383

conv2.bias f4 [16]
00000000: d904 95bc b8ae 9d3d bccd 41bd 587d 2bbc
00000010: 0184 bc3c e0eb ce3d 6b5d f53c dfd4 3abd
00000020: ed33 c9bb 436f 663d 2a09 183c 6076 fa3d
00000030: eb9d 94bd d807 8ebd 046d 89bd de22 103d
-0.018190788 0.076993406 -0.047315344 -0.010466896 0.023012163 0.10103583 0.029951772 -0.045613166
-0.0061402232 0.05625845 0.009279529 0.122296095 -0.07256683 -0.0693509 -0.06710246 0.035189502

fc1.weight f4 [120, 256]
00000000: cf54 6b3d ff7a 893d ffb5 143e d7a0 363e
00000010: da4f e63d f150 08bd 8199 e8bc 7efd f3bd
00000020: 5adc 453d 2e25 7cbd 0719 9c3d 1774 97bd
00000030: c516 91bb a82b 103d 931a a73d 3bb4 a63d
00000040: 8dd9 793e b88e f1bb 1b27 553e ee0b 053e
00000050: b683 37bc e803 9639 2928 48bd cd10 a1bd
00000060: 45a9 a83d 9c84 7abd 4179 fbbc 56e5 fcbc
00000070: 4c95 7e3d 1920 583d 68a2 c43d e371 4b3d
00000080: 3de1 b8bd 45e3 05be 629f babd 6b2f 8b3d
00000090: c5e0 d3bd 9b7c 6ebc 6483 223c 6af6 30bd
000000a0: 0439 91bd c2a7 80bd c542 f9bd 5edf aabd
000000b0: 6e02 29bd 939c 60bd ce53 d9bd c2a3 b43a
000000c0: 2e72 063e 5a67 013d a150 22be d280 2bbe
000000d0: f2ea d83c 0aaf 0e3e b16d 82bd 1b85 c93a
000000e0: 6e5c 693d c193 293d 1268 0fbb a377 17bc
000000f0: 6d4e 1bbd e889 a8b7 38ca 90bc bc63 e23d
00000100: 82e2 31be 7b57 a1be aab8 a2be 9d82 83be
00000110: 33c2 dc3d 46e2 dd3d 6af4 433d 3e73 343e
00000120: 4f6a 683d dd3a 393c 7c56 ed3d 2481 633d
00000130: 9800 10bd fef6 5abb ba3e fd3b 1575 98bc
00000140: b05d 81bd 60e5 37be f150 c6bd 58bf 4abe
00000150: c1c2 f4bd 316a 54bd e0bf b93a af90 06be
00000160: e6ee bf3d 1e97 64ba 6134 fe3d fffa 2d3d
00000170: 153b 99bb b4b5 173e 3583 933d 4dff d53c
00000180: 801c d3bd 21e4 9ebd 9f5d e9bd ea4b 273d
00000190: bb37 653d 41c9 a3bd d9d9 f93c 3800 81bc
000001a0: fa18 c93d e47c 463d f7e4 bbbc acbb e23d
000001b0: 96c6 65bd 51a2 f53c b632 5aba 8c51 69bb
000001c0: 275e 92bd 6d07 1fbe e3b1 1bbe a0e8 0dbe
000001d0: d6ca 2bbe 3356 ba3d 3c83 f9bd 9e7a aebc
000001e0: 3499 f4bd f8e7 a9bd 8fcb de3d ad36 b03c
000001f0: 2d60 91bd 013f 1abd 9b1e 54bd e9ed a7bc
00000200: cdd6 3dbd c1b8 de3c a79d 5d3e ed19 803d
00000210: dd24 df3d 5e05 a3bc cfc9 88bd a1f0 403d
00000220: 3efb fd3d e64d ddbc 2230 d4bc 92d9 643e
00000230: b66c c83c 479e e83c d9cf 4dbd c393 8a3e
00000240: 4588 0a3d bb4a c23d 292e 2c3e 1bef 893d
00000250: 35c5 fb3d f03a 1d3e 04bf 43bc 8bdf 9d3d
00000260: e304 903c 8490 79bc 4058 d6bc c2b7 05bd
00000270: cdd2 b4bc 551f c23d 2a25 ae3c 5fe7 32bd
00000280: 2d07 a2bd 8781 5dbe 5943 31be 8d0a b0bd
00000290: b0c8 14bb ad10 333e 2c4e 543e 1b66 263e
000002a0: bfb2 b8bb 41cf 633d f169 1f3e f6d9 91bc
000002b0: 3bd0 fbbc 1674 843d be58 b2bd 35b2 b4bd
000002c0: b1a9 9bbd 11c7 173d 4e79 8a3e ba5f a53d
000002d0: 6d26 01be 79a5 9ebd 6b62 03bd 9563 ffbd
000002e0: fb32 0cbd 577b 3d3d 78f2 783b a8c6 c73c
000002f0: 7dd3 533d 4f01 353d 818b 8ebd 52ec 03bd
00000300: 6d65 833d cebb 8f3d 4891 e73d afda af3c
00000310: 84ec b93d 5aaa b23d ad39 343d 45bd 103d
00000320: 5d86 6c3d 1fab 243d 019d ae3a 8853 6a3d
00000330: faa9 a0be 5fa2 29bd e84b bfbd f6d7 82bd
00000340: 7bc6 e6bd 2d8b 3cbe 8bce 84bc 9c7c 533e
00000350: 3aa7 7e3c 4e2b 2abd 07a9 83be f691 67be
00000360: da25 9d3a 5447 4abd 2668 213e 6cbc ffbb
00000370: a54f 5a3d bb4e ae3d 4861 033e 9f95 873a
00000380: 41bc 94be 4f77 74be 078f ecbc 9ffd 553e
00000390: ad94 793c 23f9 bb3d 8f9a 203c b013 533e
000003a0: 2253 313e b009 fb3b 56ac 263d 2ee1 fb3d
000003b0: b523 023e 0b1e f53b bc62 15bd d738 e0ba
000003c0: 5373 1abe 35b6 a5be 5f7e 9fbe 4aac 07be
000003d0: 0997 ecbc 53c0 27bd a6df bfbc 1038 403d
000003e0: a19f 4c3d 054a 103d cc76 453d 2a6b 94bb
000003f0: 6482 973c 40cd 933d 5888 073d 4249 8c3c
0.057453927 0.06712913 0.14522551 0.17834793 0.11245699 -0.033280317 -0.028393509 -0.11913584
0.048305847 -0.061558895 0.07621961 -0.07395189 -0.004427763 0.035197884 0.081593655 0.08139845
0.24399395 -0.0073717497 0.20815699 0.12992832 -0.011200836 0.0002861314 -0.048866425 -0.078645326
0.082354106 -0.061161622 -0.030697467 -0.030871075 0.0621541 0.052764986 0.09601289 0.049669158
-0.09027336 -0.13074978 -0.09112431 0.06796154 -0.10345606 -0.014556075 0.009919021 -0.04320375
-0.07090953 -0.06281997 -0.121709384 -0.08343385 -0.041262083 -0.05483682 -0.106116876 0.0013781714
0.13129494 0.031592704 -0.1585107 -0.1674836 0.026479218 0.1393396 -0.06368578 0.0015374752
0.056972913 0.041400675 -0.00218821 -0.009244832 -0.03791659 -2.0091378e-05 -0.01767455 0.11054179
-0.17371562 -0.31512055 -0.31781512 -0.25685588 0.10779228 0.10834174 0.047840513 0.17622086
0.05674201 0.011305538 0.11588761 0.05554308 -0.035156816 -0.003341138 0.007728425 -0.018610517
-0.063166976 -0.17958593 -0.09683407 -0.19799554 -0.11951209 -0.051859085 0.0014171563 -0.1314113
0.09371738 -0.0008720028 0.12412334 0.042475697 -0.0046762326 0.14815408 0.0720276 0.026122713
-0.1030817 -0.07758356 -0.1139481 0.04084388 0.05596135 -0.079973705 0.030499386 -0.015747175
0.09819217 0.04845895 -0.022936327 0.11070952 -0.05609759 0.029984625 -0.00083235966 -0.0035601584
-0.071468644 -0.15530176 -0.15204577 -0.1385827 -0.16776595 0.090984724 -0.12183234 -0.021298703
-0.11943284 -0.08296198 0.108786695 0.021510446 -0.07098422 -0.03765774 -0.051787 -0.020499187
-0.046347428 0.027187707 0.21642171 0.06254945 0.10895703 -0.01990002 -0.06679117 0.04710448
0.12401436 -0.027014684 -0.025901858 0.22348621 0.0244659 0.028395785 -0.050247047 0.27065858
0.033821363 0.0948691 0.16814484 0.06735059 0.12293474 0.15354514 -0.011947397 0.07708653
0.017580455 -0.015232209 -0.026165128 -0.03264595 -0.022073174 0.09478632 0.021257956 -0.043677684
-0.07911525 -0.21631442 -0.17310847 -0.085957624 -0.0022702627 0.1748683 0.20732945 0.16249888
-0.0056365426 0.055617575 0.15567757 -0.017804127 -0.03073894 0.06467454 -0.087083325 -0.08823053
-0.076007254 0.03705508 0.27045673 0.08074899 -0.12612315 -0.07746405 -0.03207628 -0.12470166
-0.034228306 0.046260204 0.003798632 0.024386719 0.051715363 0.0441907 -0.06960202 -0.032207794
0.0641583 0.07018243 0.11307007 0.021466581 0.09078315 0.08723898 0.044000316 0.03533675
0.057745326 0.040202256 0.0013321937 0.057208568 -0.31379682 -0.041414615 -0.0934065 -0.063888475
-0.11268326 -0.18412466 -0.016211769 0.20653003 0.0155428 -0.041545205 -0.25714895 -0.22614273
0.001198943 -0.04938443 0.15762386 -0.007804444 0.05329861 0.085111104 0.12830079 0.0010344273
-0.29049876 -0.23873638 -0.028876795 0.2089753 0.015233201 0.091783784 0.009802475 0.20612979
0.17316869 0.007661067 0.040691696 0.12298809 0.12708934 0.007480388 -0.036471114 -0.0017106783
-0.15083055 -0.32365575 -0.311511 -0.13249317 -0.028880613 -0.0409549 -0.023422074 0.046928465
0.04995692 0.03522684 0.048208997 -0.0045293765 0.018494792 0.07216883 0.033089012 0.017124776

fc1.bias f4 [120]
00000000: b775 443d 2dbb 74bd f553 87bd f6f5 c03d
00000010: 5c53 7fbb b866 42bc 4247 f33c 464b dbbc
00000020: 853b 08bd b462 873b 498c ef3d ed36 953c
00000030: dd7c 95bd e765 69bd 2e88 c13b 7652 30bd
00000040: 3cb0 93bd 11ea 513d f8a7 e0bb 1370 19bc
00000050: d308 8bbc 11b6 2ebc e85d 313d 7507 a2bd
00000060: f830 11bd c577 a1bc 9156 91bd f6f2 8c3c
00000070: f3ca d4bc 2a17 2c3a 582a 063d 0e17 3d3d
00000080: 126c 1f3d 17e1 2dbc d52f 403d 4e6a 643d
00000090: 0ac1 213c cc16 ed3c 3193 223d 58c5 9fbb
000000a0: 4027 923d 6653 9c3d 785d 893b e35e 753c
000000b0: 6c9d 733d 6373 5cbd 7240 5c3d 2660 babc
000000c0: 2e9e 25ba 62b2 8e3c cbb5 df3c 1c88 8dbb
000000d0: df45 c33b 5836 a53d 62dd 29bc 55ce e2bd
000000e0: 5396 a13d 45b6 2abd 852b f33d 870c 51bd
000000f0: 54c6 82bd e992 1dbd f060 3abd ee4e 9b3d
00000100: 8c44 feba f883 633d 1dd6 f93c d0b4 b13c
00000110: a7de 4fbd d243 a1bd 9ae2 39bb a13b b23b
00000120: e789 04bd 8cc7 31bd 66ce 57bc 7bc2 1c3d
00000130: d3b6 1cbd ebb6 a73c 81ae 95bb 8196 693d
00000140: d32f 55bd 2b1c 883d 86a8 04bd 4c8c 5c3d
00000150: 5684 0e3d 9a45 04bd d50e c3bd eb0a 9fbc
00000160: 9a87 2cbd 108f acbd 3c26 4fbd 7374 ddbd
00000170: 10ac 593c be1d dbbc 7fa4 c23c 72f6 383d
00000180: 7f4e 90bd 3f33 43bc 609d e3bc 7df9 a03a
00000190: 6546 373c 8642 4ebd 215c 8a3d 6b55 163d
000001a0: d227 e23d fcfe 803d fdcb 90bc 25de 7bbc
000001b0: 7137 75bc 89e7 6f3c eb43 703c 80ee 1e3d
000001c0: 551b ffbb 3f2d 593d c25c 0a3c 70da c53d
000001d0: e5ab 17bd 62da 9d3c 56cf 39bd bb64 54bd
0.047963824 -0.059748817 -0.066078104 0.09421913 -0.0038959598 -0.01186531 0.029697064 -0.026769292
-0.033259887 0.0041316394 0.11696679 0.018214667 -0.072992064 -0.056981947 0.0059061265 -0.04304739
-0.072113484 0.051248614 -0.006855961 -0.0093650995 -0.016971981 -0.010663525 0.043302447 -0.079115786
-0.03544709 -0.01971043 -0.07096589 0.017205697 -0.02597568 0.0006564731 0.032755226 0.046164565
0.038921423 -0.010612748 0.046920616 0.055765443 0.009872684 0.028941534 0.039691154 -0.00487582
0.071363926 0.076330945 0.0041920505 0.014976236 0.0594763 -0.05382098 0.053772397 -0.022750925
-0.0006317821 0.017419044 0.027308365 -0.004319204 0.005959257 0.08067006 -0.010367723 -0.11074511
0.0789 -0.041677732 0.11873535 -0.051037338 -0.06385484 -0.038470183 -0.045502603 0.07583414
-0.0019399091 0.055545777 0.030497605 0.021692663 -0.050749447 -0.07874264 -0.0028363825 0.005439237
-0.032358076 -0.043403193 -0.013171768 0.03827141 -0.038260292 0.020472964 -0.0045679216 0.057028297
-0.05204756 0.066459976 -0.03238728 0.053844735 0.034794174 -0.03229294 -0.09524313 -0.019414386
-0.042121507 -0.084257245 -0.050573573 -0.108132266 0.013285652 -0.02674758 0.023760078 0.045156904
-0.07046222 -0.0119140735 -0.027785003 0.0012281385 0.011186217 -0.05035641 0.067558534 0.036702555
0.11042751 0.062986344 -0.017675394 -0.015372788 -0.014966832 0.014642605 0.01466463 0.03880167
-0.0077852407 0.053021666 0.008444967 0.09660804 -0.037029166 0.019269172 -0.045363747 -0.051853877

fc2.weight f4 [84, 120]
00000000: 94a2 cfbc aa17 2c3d 4003 1ebe 35dc 14bb
00000010: cf5d 0dbe c3f4 bd3d 9476 c23c 9e45 393d
00000020: a137 ca3d b826 12bd 3bc0 9ebb b1b8 2ebb
00000030: 13c3 f4bc ec04 45bd eb3c cb3d 89ee 5b3d
00000040: 968f 59bd c86f 833d 2e6a 0c3e f4d4 3b3d
00000050: 5722 3e3d 698d 4ebd a4fc c2bd 48cb c73d
00000060: 0d4d a43d 41ab 52bd 41b0 bc3d ebcb f1bd
00000070: b9a1 473d c7e6 a4bd 7a80 fabd 30ea 07bd
00000080: 9555 283d f4d2 d9bd be03 e43d cea9 373d
00000090: b8bf 3fbd b60c 28bd ddae ad3d 3ff0 05bd
000000a0: 6621 3bbd bf01 dcbb c1a5 02be 6016 ec3d
000000b0: 1aa9 73bd 86d1 febc f257 a53d dcb4 ce3b
000000c0: 5cf6 9c3d 1bed 9a3b 3972 e23b 4903 6bbe
000000d0: 955b 80bd 040e 4a3e aef4 013e 80f4 15bb
000000e0: 088b 4c3e 9041 28bd 633d 083d 6401 04be
000000f0: 5040 f53d ed22 e9bb 9246 823a e67f f6ba
00000100: 0b8a 0dbd eaa8 2c3e 8e2c 24be 45ce cc3d
00000110: dba8 a03d a63d 16bd b507 073a 356f ebbb
00000120: 2ecf ec3d 91c5 dfbc 7aec 7d3d 3cac 823c
00000130: 29cc a0be 8e45 933a 54a5 9dbd 57e0 143e
00000140: 5908 cdbc 1acd fd3d 0b9e 3f3d bd59 54be
00000150: a488 123d 2cca 083d bb42 2c3d e7b6 953d
00000160: 82b1 83bd dd28 fc3c 4937 f13d 7505 b33c
00000170: d64f 763c 686b 553c 164b 7ab9 9f13 d23d
00000180: 1532 b1bd 90ad 19be f169 babd 7529 013d
00000190: e1b8 153c b340 16bd b001 23bd 8f23 18bd
000001a0: 02d3 bf3c bc26 b9bc 1035 f9bd 7d57 ee3d
000001b0: fb58 f9bd 32d8 43be 0404 bdbd ae9a dfbd
000001c0: bf38 1cbe 4480 1e3e 1a93 c3bd 6cff b7bc
000001d0: ffcf 6139 5190 aebb f990 02be 145c 92bd
000001e0: e9fb a03d cb84 403d b1cb 6a3d 31f6 05be
000001f0: e7e8 da3c 4de0 d9bd 47c2 0cbd 89a1 e03b
00000200: f32d 09be d852 29bd 31c1 1dbd 4df0 63bc
00000210: 2e97 5d3d cf12 f3bc d130 62bd e2e5 99bd
00000220: 01d7 45bd 10bd 0dbe 06d0 8c3d 15f7 9f3d
00000230: 76ce 51bb 5034 223d dd12 27be a0f4 7c3d
00000240: bbf9 6cbd eeed e1bb 9ae2 ca3c 7dfa 073d
00000250: 50b8 82bb 7433 22bd b8f9 83bd e4c6 4fbe
00000260: 9ed9 8a3c e96a 0a3d c92d 9d3b 9d9b 45bd
00000270: 669a 4c3d c3e3 a2bc facf df3c 6dd9 83bc
00000280: a7f8 d7bd 5649 05bd 90ec a9bd 12fa ccbd
00000290: a717 29be 8781 3dbe 8c16 56be a688 7abc
000002a0: 28a9 da3d d3ff afbd 7126 02be ab37 0dbe
000002b0: 5499 023d b548 56bd 625f 23be b7b9 87bd
000002c0: 792d 7b3d f374 9ebd 3c2d 93bd 755c 88bd
000002d0: f7ca c2bd 476c 43bd b2b4 c93d 425a ddbd
000002e0: 342f 10bd f5b4 bcbd d869 15be 0060 b9bd
000002f0: 0b09 21bc e8a2 6dbc 3435 803c 166a 49be
00000300: b168 7fbd dbaf c6bd 3ad7 7c3c c177 e3bd
00000310: 2065 52bc 1051 763d b31e 2b3c 632f 60be
00000320: 448c 233d f781 92bc 91a6 69be ee1a b23d
00000330: 535b 98ba a20f 20bd 198f 2cbe 1b50 ab3d
00000340: 421f 24be 6f3c e9bc 81b8 8c3d cef6 33bd
00000350: 3051 863d 72bd cabe 6b8c 04bd d143 82bd
00000360: 96be 003e 2f19 6bbd ec51 343e 099a 353d
00000370: 120f a83d f98f 0ebd 5851 5ebd 290b f93d
00000380: 4372 04be ff38 483d 124a 143e 8c75 3d3c
00000390: 1bc5 b7bd e9b9 313d d522 ddbd a54a 1e3c
000003a0: 47d9 be3c 38d7 fdbc 1056 27bd a218 f6bd
000003b0: 35eb 8c3d 5db4 813d 0866 023e 4d61 25be
000003c0: 1f49 313d f20c 443d 38cb 50bd 1303 2bbd
000003d0: 7c43 3a3c 9dd7 3f3b dd9c 9c3c 42af 40bc
000003e0: 5346 943c 853e 1bbc 3cc6 8d3d 5c32 9fbb
000003f0: 7009 143d fe56 08bc 4ae7 cbbb 3160 6b3d
-0.025346078 0.042014755 -0.15430927 -0.0022714261 -0.13805316 0.092752 0.023738183 0.045232408
0.098738916 -0.035681456 -0.004844693 -0.0026660378 -0.029878175 -0.048100397 0.099237286 0.05369428
-0.05311545 0.06417805 0.1371238 0.045857385 0.046419468 -0.050427828 -0.095208436 0.0975557
0.08022509 -0.05143285 0.09213305 -0.118064724 0.048738215 -0.0805183 -0.12231536 -0.033182323
0.041097242 -0.10635939 0.11133526 0.044839673 -0.046813697 -0.041027747 0.08480618 -0.03269982
-0.045686148 -0.0067140753 -0.12758543 0.11527705 -0.05948744 -0.031105768 0.08073415 0.006308181
0.07664177 0.004727972 0.006910589 -0.22950472 -0.06267468 0.19731909 0.12690994 -0.002288133
0.19974911 -0.04107815 0.033261668 -0.12891155 0.11975157 -0.007114759 0.0009939244 -0.0018806427
-0.034555476 0.1686131 -0.16032621 0.1000028 0.078447066 -0.036679886 0.000515099 -0.007184888
0.11562954 -0.027315887 0.0619931 0.015951268 -0.31405762 0.0011235939 -0.076975495 0.14538704
-0.025028395 0.12392636 0.04678158 -0.20737357 0.035774842 0.03339593 0.042055827 0.073102765
-0.06430341 0.030781204 0.11778123 0.021853188 0.015033683 0.013026096 -0.0002386983 0.10257649
-0.086521305 -0.15007615 -0.09102238 0.031533677 0.009138317 -0.036682796 -0.03979653 -0.037143286
0.023416046 -0.022601478 -0.12168324 0.11637781 -0.12175175 -0.1912544 -0.092292815 -0.10918175
-0.15256022 0.15478617 -0.09549542 -0.022460662 0.00021535157 -0.0053272625 -0.12750615 -0.07146469
0.07860548 0.04700164 0.05732316 -0.13082196 0.026722385 -0.10638485 -0.034364965 0.006855194
-0.13396434 -0.04133877 -0.03851432 -0.013912273 0.054099254 -0.029672055 -0.055222336 -0.0751455
-0.048300747 -0.13841653 0.06875615 0.07810799 -0.003201393 0.03960067 -0.1631579 0.06175673
-0.05785535 -0.0068948185 0.024766255 0.03319787 -0.003989257 -0.03959985 -0.064441144 -0.20290715
0.016949471 0.033793364 0.004796718 -0.048244108 0.049951933 -0.019883996 0.02732085 -0.016094888
-0.105454735 -0.03254064 -0.08297074 -0.100086346 -0.16512929 -0.18506442 -0.20907038 -0.015291369
0.10676795 -0.085937165 -0.12709977 -0.13790767 0.031884506 -0.052315433 -0.15954354 -0.06627219
0.061322663 -0.0773715 -0.07186362 -0.0665826 -0.09511369 -0.047710683 0.09848918 -0.10808231
-0.035201266 -0.09214202 -0.14591157 -0.09051514 -0.009828816 -0.014504172 0.01565037 -0.19669375
-0.0623557 -0.097015105 0.015432173 -0.111068256 -0.012841493 0.0601359 0.010444331 -0.21893077
0.03992869 -0.017884238 -0.22817446 0.08696543 -0.0011623896 -0.03907741 -0.16851462 0.08364888
-0.16027549 -0.0284712 0.06871129 -0.043936543 0.06558454 -0.3959766 -0.032360476 -0.06360591
0.12572703 -0.057397064 0.17609376 0.044336352 0.082059994 -0.03480527 -0.054276794 0.12160332
-0.12934212 0.04888248 0.1448138 0.01156367 -0.08973142 0.04339019 -0.10797659 0.009661351
0.023296965 -0.030986413 -0.04085356 -0.12016417 0.068808 0.0633323 0.12734234 -0.16150399
0.043282624 0.047863908 -0.050975055 -0.04175098 0.011368629 0.0029272803 0.019117767 -0.011760535
0.01809994 -0.009475355 0.06922576 -0.004858298 0.036141813 -0.008321522 -0.00622264 0.057464782

fc2.bias f4 [84]
00000000: c684 3b3d 7bf0 b6bd 3fe6 1fbd 59fb d63b
00000010: c2e8 6e3d 9b80 47bd a17e 703c 2341 d9bd
00000020: 3b9f 513d 75a4 b6bd cbcd 533d c0d4 96bc
00000030: 50de 543d 8694 cebd 0006 433d d88a ccbc
00000040: 0900 c73c cb94 633d 89f8 863d 3d3d aa39
00000050: fd92 21bd da6b f4bc 64d5 c23d e266 dd3c
00000060: b32a 913d 492b bebc 1fc9 04bd be07 36bd
00000070: e238 c4bc 0169 913d e4ff 00bd 97b1 b63d
00000080: 8012 e5bd f570 833b 328f ecbd fee0 01bd
00000090: 6c31 0bbd 6a0a d63d 03c6 993d 027f ca3a
000000a0: 415b ad3d 26b1 053d aa21 643c ef06 cc3d
000000b0: b565 b0bb e2e4 3cbd 9012 013d 4c8c bebb
000000c0: 4434 bf3d 0823 a53d 6147 0bbd 7fce 903d
000000d0: d23a ed3d aa64 65bd 7bd9 8e3c 6850 f6bc
000000e0: cb67 e33d 7a2c bf3d 6762 9f3d 1e33 323d
000000f0: 3a8a 743d 9ad4 9abd c5b3 6cbd b926 19bd
00000100: 3d58 ce3d 9e2c 563d b110 d33d 0f4b 643d
00000110: 1765 1b3d 8f10 98bc 0eb1 30bc bd77 9dbd
00000120: c285 fbbc aa84 303d 7127 193d 58f3 753d
00000130: 2f26 f6bc e546 ebbd 4247 d8bb 3fec 67bd
00000140: 1bf3 94bd 2af2 d3bc 81d8 aabc 0c2b 263c
0.04578092 -0.08932587 -0.03903794 0.0065607247 0.058327444 -0.048706632 0.014678628 -0.10608127
0.051177245 -0.089180864 0.05170993 -0.018411994 0.051969826 -0.10086922 0.047613144 -0.02496855
0.024292009 0.055561822 0.06590373 0.00032470553 -0.03944682 -0.029836584 0.09513357 0.027026597
0.07088222 -0.023214 -0.032418367 -0.044440977 -0.023952905 0.07100106 -0.031494036 0.08920591
-0.11185169 0.0040112683 -0.1155075 -0.03170871 -0.03398268 0.10451205 0.07508471 0.0015449228
0.08464671 0.032639645 0.013924042 0.0996226 -0.005383218 -0.046116717 0.031511843 -0.0058150645
0.09336141 0.08063322 -0.03400362 0.07070636 0.11583485 -0.056004204 0.017437687 -0.030067638
0.11103781 0.09334655 0.07782441 0.04350578 0.059702136 -0.07560082 -0.05778863 -0.037390444
0.10075424 0.052288644 0.10305918 0.055735644 0.037938204 -0.018562583 -0.010784401 -0.07688854
-0.03070343 0.04309527 0.03739113 0.060046524 -0.030047504 -0.114881314 -0.0066002915 -0.056621786
-0.07272931 -0.025872309 -0.02085519 0.010142099

fc3.weight f4 [10, 84]
00000000: 17be 83bd 5cc7 2fbe 982d 04be d9a1 093e
00000010: 3c9e 963d a428 8cbd f19f 34be 02df b9bd
00000020: 9a8e e3bd b880 7f3d dd8c 7dbd 8b2a 11be
00000030: 3615 85be c911 8bbd 77aa 3dbe 695a 14be
00000040: 75cd 24be e037 1c3e 13f8 4a3c 1d68 ab3d
00000050: 541e aa3d 4863 68bd 41cb 82be 1855 843d
00000060: 6a7c 3b3d f017 6abd 17f4 84bd 238d 89bd
00000070: a19c b53d 9f5e 043e 525b 063e abf9 84bd
00000080: 5757 edbc d2fc 0a3e da27 81bd c407 52bd
00000090: 211e 22be 52df a03d 2e47 28be f827 92be
000000a0: d29f 3b3e 3d9e 06bb 8b86 f43d 064e 773d
000000b0: 9949 0fbe bcf6 8fbe 5b6f fa3d d109 89bd
000000c0: 5f66 77be a818 31bd b1a8 923d dd37 91be
000000d0: e503 14bd fbb3 12be 2e6e 43be 9ca0 943d
000000e0: 124f 2ebe 35d4 2dbe 2bc7 77be ac1b 4bbd
000000f0: becb a0be 7425 2d3e f07a 1f3d 8c3a 293d
00000100: 637e c93d e59a 79bd dee5 a8bd 7c99 05be
00000110: 95ec d9bd 9959 eabd 5173 9fbe 5dae 43be
00000120: 09fd 133a 3f6e 32be 0b41 a93c 562d a13d
00000130: 3947 a9bd e61e 243e e459 8d3d 765a 0b3e
00000140: 149a 0fbe 39b4 b33c 9d91 a43a 8d8d 7d3d
00000150: 5e3b e9bd 90a5 41be f2d2 cabd a767 45be
00000160: 1f4b 403e a0a1 9d3d 5c0b 8d3d c415 b8bd
00000170: 66a4 3d3c 9e4d 8e3d 2106 2cbe f864 41be
00000180: 1d7d 023e 94ee aabd b31f 213d 3471 ae3b
00000190: 5403 963d 0c18 44bd 5e23 b9bd 9bff 41be
000001a0: 0dfb 4abe 87da 6a3d 9417 f83d 4e82 49be
000001b0: aac1 38be 0f3b 06be 502d c33c be67 ad3d
000001c0: 55d3 8f3c 425e 293b dfc1 ae3d ca5d ac3d
000001d0: 050a 8f3d f0bd 263e 14f1 8cbb 3756 ae3d
000001e0: a7f5 5cbe ae52 193e d267 cbbd 84f6 59be
000001f0: 9c7e 79be 3007 53be ec1d 08be cf34 1d3e
00000200: 2ca1 69be 8d91 16be e66d 773d a41d 28bd
00000210: 71cb 4b3e 1411 6c3d 3471 c6bd 339f dc3d
00000220: 2cf5 0a3e fcf8 113d 41d2 2f3d 436a c83d
00000230: 9881 1e3e 25c7 1d3d b1cb f1bd db2b 963c
00000240: b637 ebbd 265a 90be 1541 423d 87e9 8dbd
00000250: 2d80 1ebd 348a 80be 9305 1d3d 3ca1 28be
00000260: 2458 14be 7789 14be cf17 263d b141 f9bd
00000270: c0a3 a1bd 29b9 6b3e e937 d8bc 6756 3cbe
00000280: 5ac9 dc3d a158 1dbd cfe3 9a3c 0819 0ebe
00000290: 5eb9 82bc 15fe d33d 9851 f5b8 8b66 30bd
000002a0: 6af8 713d 2d25 45be 7d9b d4bd adc3 89be
000002b0: 8f0c 55be b70a 6abe 2c31 91bd 79dd af3d
000002c0: f1d2 60bd 2df2 a53d 711a d1bd 8195 8bbe
000002d0: f869 d13d 5aff 5abd 9066 3c3d b8f9 21be
000002e0: b7bf 2ebe 2339 d8bd c67d 83be 3bfd 663c
000002f0: 2f1e b63c 1774 40bd 862b 5cbe 28d4 883d
00000300: dedf 01be 9f7d b4bc 8aac 7cbc fcf2 35bc
00000310: 5c02 153e 57a4 48be 6713 2a3d 9875 5c3b
00000320: 1014 a6bd f1c3 2b3d 972d 8cbc 68f0 6fbd
00000330: 9b8c 00bc 1d42 78be 09b7 a5bd 1c06 65ba
00000340: 09ce 2fbe 481b 733d 2a09 183e bb24 62be
00000350: 02a6 ccbd 3d90 16be 90f4 5f3d 3fa6 e33d
00000360: f8dd 443d 56ce 5fbe 122f 9a3c 5cb9 453e
00000370: 9c3f 27be 7738 3cbd 98c5 a73c 7e75 0e3e
00000380: 5c9e fabd 5e4b 49bd e5d9 f83d e951 9a3d
00000390: 29af 0f3d 54ad c5bd fae8 55bd 4cc4 9d3d
000003a0: 6f0e 8e3d 1806 cf3d 909d 123e 9586 013e
000003b0: 5197 943d 77ea 87bd 75c2 54be 3be0 10be
000003c0: 2ce5 cbbd abf9 653d c8bc 123e b036 143e
000003d0: 71b0 2d3e a56d 523c a7bf ad3d 5825 20be
000003e0: 942c ff3d fbb5 803d d939 d03d c549 49be
000003f0: 3725 353e 4789 423d 5004 47bc 3438 ba3d
-0.06432741 -0.17165893 -0.12908018 0.13440646 0.073543996 -0.06843689 -0.17639138 -0.090757385
-0.111111835 0.062378615 -0.061901916 -0.14176385 -0.25992745 -0.067905016 -0.18522058 -0.14487614
-0.16094 0.1525569 0.012388247 0.083694674 0.08306566 -0.056735307 -0.25545695 0.06461543
0.045772947 -0.057151735 -0.06491869 -0.06716373 0.08867765 0.1292672 0.13120773 -0.06492933
-0.028972311 0.13573006 -0.06306429 -0.051276937 -0.15831806 0.07855095 -0.16433403 -0.2854612
0.18322685 -0.0020541095 0.119397245 0.060377143 -0.13992919 -0.2811793 0.122282706 -0.066913255
-0.24160145 -0.043236405 0.071610816 -0.28362933 -0.036136527 -0.1432647 -0.19084999 0.07257196
-0.1702235 -0.16975482 -0.2419707 -0.049586937 -0.31405443 0.16908818 0.0389356 0.0413156
0.098385595 -0.060938735 -0.08246969 -0.13046831 -0.106408276 -0.11442871 -0.31142667 -0.19109483
0.000564531 -0.17424868 0.020660898 0.07869975 -0.08265538 0.16027412 0.06901911 0.13608727
-0.1402362 0.021936523 0.0012555603 0.06190257 -0.113882765 -0.18910813 -0.09903516 -0.19277821
0.18778656 0.07696843 0.06886932 -0.089885265 0.01157484 0.06948398 -0.16799213 -0.18886173
0.1274304 -0.083462864 0.03933687 0.0053235535 0.073248535 -0.047874495 -0.09039949 -0.18945162
-0.19822331 0.05733731 0.12113872 -0.19678614 -0.18042627 -0.13108467 0.023825318 0.08467053
0.017556826 0.0025843536 0.08533072 0.08416326 0.06984333 0.16283393 -0.0043011997 0.08512538
-0.21578084 0.14972946 -0.099319115 -0.21285444 -0.24364704 -0.2060821 -0.13292664 0.15352176
-0.22815388 -0.1470396 0.06040754 -0.041043893 0.19901825 0.057633474 -0.096895605 0.10772552
0.13570088 0.03563784 0.042925123 0.09785893 0.15479124 0.038519997 -0.11806429 0.018331459
-0.114852354 -0.28193778 0.04742535 -0.069293074 -0.038696457 -0.2510544 0.038335394 -0.16467756
-0.14486748 -0.14505564 0.04055005 -0.12170733 -0.07892561 0.23019852 -0.026393848 -0.18392335
0.10780592 -0.0384146 0.018907456 -0.13876736 -0.01595753 0.10351197 -0.000116977084 -0.043066543
0.059074797 -0.19252463 -0.103812195 -0.269071 -0.20805572 -0.2285565 -0.07089457 0.085871644
-0.05488867 0.08102832 -0.102101214 -0.272625 0.1022529 -0.05346618 0.04599625 -0.15817916
-0.17065321 -0.10557773 -0.25681895 0.014098461 0.02223119 -0.046985712 -0.21500978 0.066810906
-0.12683055 -0.022032557 -0.015421996 -0.011105295 0.14551681 -0.1959394 0.04152241 0.0033639427
-0.08109295 0.04193491 -0.017111583 -0.05857888 -0.007846023 -0.2424397 -0.08091552 -0.0008736567
-0.1716844 0.05935219 0.14847246 -0.22084324 -0.09992601 -0.1470346 0.054676592 0.11115693
0.04806325 -0.21856055 0.018821273 0.1930899 -0.16332859 -0.045952287 0.020479962 0.13912007
-0.12237236 -0.04914414 0.12150935 0.07535154 0.035079155 -0.096522 -0.052224137 0.07703456
0.06936347 0.10108584 0.14317918 0.12648995 0.07255424 -0.066365175 -0.20777304 -0.14148037
-0.099558204 0.056146305 0.14329827 0.14473987 0.16961838 0.012843524 0.084838204 -0.15639246
0.124596745 0.0628471 0.101672836 -0.19657047 0.17689978 0.0474942 -0.012147024 0.09092751

fc3.bias f4 [10]
00000000: 06c5 82bd 9203 9e3c 3f8c 943b b152 5b3d
00000010: 4dcf ca3d 130e 1a3d 85e7 d8bb 51f4 983d
00000020: 4d4d 833c 8c08 e0bd
-0.063852355 0.019288812 0.00453332 0.053545658 0.09902821 0.03761108 -0.006619396 0.07468475
0.01602807 -0.1093913
