Trained_Model_Paths/MLP_model.pth (torch, 440092 bytes, 6 tensors)

fc1.weight f4 [128, 784]
0	0x3b8499bc	0.004046647
1	0x3d1241d9	0.03570733
2	0x3a832de4	0.0010008183
3	0x3d784f2f	0.06062239
4	0x3d322510	0.043492377
5	0x3cd77449	0.026300566
6	0x3ca558bb	0.020183912
7	0x3d3560da	0.044281818
8	0x3cb47467	0.022028161
9	0x3c7b4e10	0.015338436
10	0x3d47c828	0.04877487
11	0x3cead5dd	0.028666431
12	0x3c66b561	0.01408133
13	0x3cf1ee90	0.0295327
14	0x3d2c4b6d	0.04206412
15	0x3cc45003	0.023963934
16	0xbbdcb435	-0.0067353495
17	0x3d18f7b0	0.03734559
18	0xbbc7daeb	-0.006099095
19	0x3d3f7a12	0.046747275
20	0x3d5ea244	0.054353967
21	0x3d2f5dd2	0.042814083
22	0x3c029445	0.0079699205
23	0x3be9caa3	0.007134752
24	0x3d01878f	0.03162342
25	0x3c023c29	0.007948914
26	0x3d6659f2	0.056238122
27	0xbab804ea	-0.001403955
28	0x3ce2dac5	0.027692208
29	0x3d7aa40c	0.061191604
30	0x3d46c574	0.04852815
31	0x3c7f1973	0.015570032
32	0x3c21fb49	0.009886571
33	0x3cd946d5	0.026523033
34	0x3cc651b9	0.02420889
35	0x3c642ebc	0.013927158
36	0x3d1c6f66	0.038192175
37	0x3d5a6e2c	0.053327724
38	0x3a9a9641	0.0011794047
39	0x3d1215ae	0.035665207
40	0x3b425141	0.0029650482
41	0x3b3b7964	0.002860629
42	0x3cd50bc1	0.026006581
43	0x3c7dccd5	0.01549073
44	0x3d932f79	0.07186789
45	0x3cf771d3	0.030205643
46	0x3d42854b	0.0474904
47	0xbc0cb72c	-0.008588593
48	0xbbc4a5af	-0.0060011963
49	0xbc2e6bd7	-0.010645828
50	0x3d60e052	0.05490143
51	0xbbd0e735	-0.0063752183
52	0x3c922677	0.017840607
53	0x3cbda0bf	0.023147939
54	0x3d546cc8	0.051861554
55	0x3d3770a6	0.044785164
56	0x3d65d05e	0.056106918
57	0x3d018efb	0.031630497
58	0xba3dbd1c	-0.00072379573
59	0xbc003722	-0.007825645
60	0xbc16338a	-0.009167561
61	0x3d07628e	0.033052973
62	0x3cc6b9ce	0.02425852
63	0x3b732ac8	0.0037104357
64	0x3cab6f7b	0.020927181
65	0x3ceca0e9	0.028885322
66	0x3d708483	0.058720123
67	0x3c26ac8b	0.010172973
68	0x3d1ebbfd	0.0387535
69	0x3ceabd70	0.028654784
70	0x3d9d8f10	0.07693303
71	0x3d4ddb3b	0.050257903
72	0x3daeb9d8	0.08531541
73	0x3d8501fc	0.06494519
74	0x3d0d9775	0.03456827
75	0x3bd0951a	0.0063654305
76	0x3bc12998	0.005894851
77	0x3c2b0b95	0.010439773
78	0x3d4841df	0.048890945
79	0x3d4f55c7	0.050618913
80	0xba1c6062	-0.000596529
81	0x3d2b149b	0.041767698
82	0x3cfce732	0.030871961
83	0xbc182aca	-0.009287545
84	0x3d55cd4a	0.052197732
85	0x3b260dbf	0.0025337783
86	0x3d242eb4	0.040083602
87	0x3b4933bf	0.003070101
88	0x3ca694ca	0.02033462
89	0x3c5f0c52	0.013613777
90	0x3d651a60	0.055933356
91	0x3bab1865	0.005221414
92	0x3d4b65e0	0.049657702
93	0x3d74ec80	0.059795856
94	0x3de65ca3	0.11248138
95	0x3e1a85d6	0.15090117
96	0x3e2d95e6	0.16951713
97	0x3e3c990f	0.18417762
98	0x3e1c9bce	0.1529381
99	0x3df720b9	0.12066788
100	0x3e285b97	0.16441189
101	0x3dae765a	0.085186675
102	0xbd2b4808	-0.04181674
103	0xbcbad802	-0.022808079
104	0x3d0e4ff3	0.034744214
105	0x3d0613bc	0.032733664
106	0x3c8dce62	0.017310325
107	0x3bedd0ed	0.007257572
108	0x3bbf6d73	0.005841905
109	0x3b947055	0.0045299926
110	0x3cf737f2	0.030178044
111	0x3d4f6d9a	0.050641634
112	0xbc126be0	-0.008936852
113	0x3d1d7b00	0.03844738
114	0xbc0bc469	-0.008530715
115	0x3c729ca4	0.014807854
116	0x3d02fac5	0.031977434
117	0xbbbbdfca	-0.005733465
118	0x3cb6d671	0.02231905
119	0x3cd14878	0.025547251
120	0x3dac90f2	0.084260836
121	0x3dd878ed	0.1056994
122	0x3e02bea4	0.12768036
123	0x3dd6f06f	0.10495078
124	0x3e0e844f	0.13917659
125	0x3daee0de	0.08538984
126	0x3d2adc6a	0.04171411
127	0x3dc837c6	0.09776263
128	0x3e2dbcca	0.16966549
129	0x3d87a9ba	0.0662417
130	0xbbffeef1	-0.0078104665
131	0x3d4f1123	0.050553452
132	0x3d8ce6f0	0.06879985
133	0xbd2f44f4	-0.04279037
134	0xbd932893	-0.07185473
135	0xbcd05699	-0.025431918
136	0x3c2f9a76	0.010717979
137	0x3c420141	0.011841119
138	0x3cc46d4b	0.023977896
139	0x3d04e116	0.03244122
140	0xbbb9378d	-0.005652374
141	0x3d2624b0	0.04056233
142	0xba3bbd06	-0.00071616506
143	0x3d343739	0.043997977
144	0x3d485604	0.048910156
145	0x3cc0c214	0.023530044
146	0x3d1b04b6	0.03784629
147	0x3d39fc52	0.045406647
148	0x3d0dc859	0.034614895
149	0x3d0fa288	0.03506711
150	0x3dbe185b	0.09281989
151	0x3d8a83e9	0.06763441
152	0x3dbf0979	0.09327979
153	0x3a8b9098	0.0010647951
154	0xbd204fb5	-0.039138515
155	0xbcf95cdc	-0.030439787
156	0xbd26e4f8	-0.040745705
157	0xbdc1f288	-0.09470087
158	0xbd714c6c	-0.058910772
159	0xbc574e5d	-0.013141242
160	0xbd31e7ab	-0.043433826
161	0xbb652614	-0.0034965323
162	0xbd04757d	-0.032338608
163	0xbce05f40	-0.027389169
164	0xbc040b3b	-0.008059318
165	0xbcc1d7f4	-0.023662545
166	0xbc0b7e2a	-0.008513967
167	0x3d408bed	0.047008444
168	0x3b05e7b5	0.0020432298
169	0xba35e364	-0.0006938486
170	0x3c561b31	0.013068006
171	0x3d22f6d1	0.039786164
172	0x3c985ae1	0.018598022
173	0xbcb88358	-0.022523567
174	0x3caf1688	0.021373048
175	0xbd641cdc	-0.055691585
176	0xbdecc90e	-0.11561786
177	0xbb6f5bb4	-0.0036523165
178	0x3dc49ee8	0.096006215
179	0x3da0dee3	0.07855012
180	0x3d128e96	0.03578051
181	0x3b4a64a3	0.0030882738
182	0x3de5a4e6	0.112130925
183	0xbd511bd2	-0.051051922
184	0x3d65ca61	0.056101207
185	0xbcd17653	-0.025569117
186	0xbdb6cec9	-0.0892616
187	0xbd9ccda1	-0.07656408
188	0xbd08bd12	-0.033383437
189	0xbd320596	-0.04346236
190	0x3c41af74	0.011821616
191	0xbce26678	-0.027636752
192	0xbcbd13d1	-0.023080738
193	0xbce89e86	-0.028395902
194	0x3d30ae36	0.04313489
195	0x3c86acd8	0.01643984
196	0xbb90d731	-0.004420184
197	0x3d7cf28e	0.061754756
198	0x3d5bbfdf	0.05364978
199	0x3d5605dc	0.05225168
200	0x3c19ba8c	0.009382855
201	0xbbee36c3	-0.0072697117
202	0xbd712142	-0.058869608
203	0xbcf3db2e	-0.029767599
204	0xbd2e8d58	-0.042615265
205	0x3cdea4a4	0.027178116
206	0x3d575eb8	0.052580565
207	0x3e284e51	0.16436125
208	0x3db7f850	0.08982909
209	0x3e195b01	0.14976121
210	0x3e519454	0.20466739
211	0x3e1557cf	0.14584278
212	0x3e85c72c	0.2612852
213	0x3e110f99	0.14166106
214	0x3cbf4cbd	0.023352021
215	0x3dcf0378	0.101080835
216	0x3dbdff8b	0.092772566
217	0x3d65c267	0.0560936
218	0xbc830c5c	-0.015997104
219	0xbd33465e	-0.04376828
220	0xbda60cf3	-0.081079386
221	0xbd7cd6f3	-0.06172843
222	0x3d4e9b22	0.050440915
223	0x3c99458c	0.01870992
224	0x3d09ea4e	0.033670716
225	0x3d5a9f96	0.05337485
226	0x3c87a561	0.016558351
227	0x3a023b71	0.0004967964
228	0x3cd6b837	0.026210887
229	0xb9ec4778	-0.00045066676
230	0xbcf7fa60	-0.030270755
231	0xbd850797	-0.06495588
232	0xbda24a2e	-0.07924305
233	0x3d50dc4e	0.05099135
234	0x3d5c40e5	0.053772826
235	0x3cc64689	0.024203556
236	0xbdbc2236	-0.09186213
237	0xbe34aef1	-0.1764486
238	0xbd6fa652	-0.058508225
239	0x3d9af0fd	0.07565496
240	0x3db69b65	0.08916358
241	0x3dda5b65	0.106619634
242	0x3d9e98fb	0.077440225
243	0x3e11ab6c	0.14225549
244	0xbd89f615	-0.067363895
245	0xbceafd45	-0.028685221
246	0xbd8d214a	-0.06891115
247	0xbda0494e	-0.07826482
248	0xbdf1ebc3	-0.11812546
249	0xbd708713	-0.058722567
250	0x3d6620f5	0.056183774
251	0x3d3e02dd	0.04638945
252	0xba83103a	-0.0009999343
253	0x3c8e164a	0.017344613
254	0x3d00b51a	0.031422712
255	0x3c12b7f4	0.008954991

fc1.bias f4 [128]
0	0xbd6560d7	-0.056000557
1	0x3c75b58b	0.0149968965
2	0x3cbab9ff	0.022793768
3	0x3c070662	0.008241268
4	0xbccd4d44	-0.025061257
5	0xbbfe4484	-0.0077596325
6	0xbc0d339a	-0.00861826
7	0x3b3ef7bd	0.0029139363
8	0x3b8f0e44	0.0043657143
9	0xbc6b52a4	-0.014362965
10	0xbd3c820a	-0.046022452
11	0x3bf78970	0.0075542256
12	0x3d3a0769	0.045417223
13	0xbcf21494	-0.029550828
14	0xbcc268c6	-0.0237316
15	0x3b953801	0.0045537953
16	0xbc0f1ec4	-0.008735362
17	0xbcdb2efb	-0.0267558
18	0xbc415f4e	-0.011802508
19	0xbb37aac9	-0.002802538
20	0x3c89a775	0.016803483
21	0x3cc96ba2	0.024587456
22	0xbcbe1ec4	-0.02320803
23	0xbcd20753	-0.025638258
24	0x3a6e864f	0.0009098993
25	0xbce67766	-0.028133105
26	0xbc384741	-0.011247457
27	0xbccd52e9	-0.025063949
28	0x3ca169e1	0.019703807
29	0xbbb52173	-0.005527669
30	0xbc65d38d	-0.014027488
31	0x3ca86f20	0.020560801
32	0x3d4a9eef	0.049467977
33	0xbc498e7e	-0.012302039
34	0xbd042405	-0.032260913
35	0xbc9e6638	-0.019335851
36	0xbd27030e	-0.040774398
37	0xbce440d5	-0.027862946
38	0xbcd051a8	-0.025429562
39	0x3c892e70	0.016745776
40	0xbcb72e3c	-0.022360913
41	0x3c1e9b0b	0.00968052
42	0xbd1228f5	-0.03568359
43	0x3a9bc043	0.001188286
44	0xbce9bd9c	-0.028532796
45	0xbcae9c3e	-0.021314736
46	0x3c511fe6	0.012763953
47	0x3a9321bb	0.0011225262
48	0x3c678637	0.01413112
49	0x3cc9d217	0.024636311
50	0x3cd634fa	0.026148308
51	0xbd0677b8	-0.032829016
52	0xbd1d552c	-0.038411304
53	0x3c5c3e67	0.013442612
54	0xbd01a510	-0.031651556
55	0x3adbc4d9	0.0016767039
56	0x3bd5c9fb	0.006524322
57	0xbd53f2c2	-0.051745184
58	0xbd00d578	-0.03145358
59	0x3cd87988	0.026425138
60	0x3cf6e41e	0.030138072
61	0x3ba8c4e8	0.005150426
62	0xbca453b4	-0.020059444
63	0xbc799771	-0.01523386
64	0x3c007852	0.007841187
65	0xbc8e3950	-0.017361313
66	0x3d129cb1	0.035793964
67	0xbd1ed1b4	-0.038774207
68	0x3c5f3a19	0.013624691
69	0xbc720b0d	-0.0147731425
70	0x3cff1f59	0.031142877
71	0x3c385fe4	0.011253331
72	0x3c97c0cd	0.018524552
73	0xbb92dfca	-0.004482244
74	0xbccbc861	-0.024875822
75	0xbd275d47	-0.04086044
76	0xba274c44	-0.0006381909
77	0x3bed292c	0.007237574
78	0xbd34f6da	-0.04418073
79	0x3c1b70c4	0.009487335
80	0xbd0163b2	-0.031589217
81	0x3bcfa3c9	0.0063366634
82	0xbd253c6e	-0.040340833
83	0xb8d09434	-9.945818e-05
84	0xbcc1ca0c	-0.023655914
85	0x3c310092	0.010803359
86	0x3baa6788	0.00520033
87	0x3c96db8e	0.018415239
88	0xbd1512df	-0.03639495
89	0xbd1d281d	-0.038368333
90	0xbd38d8d2	-0.04512865
91	0xbb5c4672	-0.0033611325
92	0xbcbc122b	-0.022957882
93	0x3c0aefae	0.008479996
94	0xbcbc8928	-0.02301462
95	0xbd08f57e	-0.033437245
96	0x3cbb6379	0.02287458
97	0xbd191bbb	-0.03737996
98	0xbac3a5ad	-0.0014926695
99	0x3c061a12	0.008184927
100	0x3ca7512d	0.02042445
101	0xbd262d89	-0.04057077
102	0xbbb1c4d0	-0.005425073
103	0xbd1ed782	-0.038779743
104	0x3bf1a51d	0.0073744194
105	0xbd3e82a6	-0.046511315
106	0x3cad90c8	0.021187201
107	0x3cbd618e	0.023117807
108	0x3c01ecf3	0.007930028
109	0xbcbafe7a	-0.022826422
110	0xbd05ce92	-0.032667704
111	0xbcbe09a1	-0.02319795
112	0x3b53825a	0.003227374
113	0xbd11d759	-0.035605762
114	0x3c66435f	0.014054148
115	0x3bf5d480	0.0075021386
116	0x3ba7aada	0.0051168026
117	0x3a779990	0.0009445185
118	0xbc502d9f	-0.012706189
119	0xbb98be63	-0.0046613677
120	0xbd05554a	-0.03255204
121	0x3ccbdc04	0.024885185
122	0xbd1f9f1b	-0.038970094
123	0xbcf3cbf1	-0.029760333
124	0xba7cfb3e	-0.0009650475
125	0xbcf5b033	-0.029991245
126	0x3c7f3513	0.015576619
127	0x3cca02e5	0.024659583

fc2.weight f4 [64, 128]
0	0xbc99f088	-0.018791452
1	0x3d1fbe38	0.038999766
2	0x3bd80c91	0.006593295
3	0xbd5f0f09	-0.054457698
4	0x3d5a8d51	0.053357426
5	0xbd84c3c1	-0.064826496
6	0xbcfb2242	-0.030655984
7	0xbdfdd77a	-0.123946145
8	0xbdabbaf0	-0.08385265
9	0xbc7bb11b	-0.015362049
10	0xbc8fbc56	-0.01754586
11	0xbd291d35	-0.04128762
12	0xbd218cc9	-0.039440904
13	0x3d11c181	0.03558493
14	0xbd8e67a0	-0.06953359
15	0x3d0546a5	0.032538075
16	0x3d237023	0.039901864
17	0x3d59d232	0.053178973
18	0x3d0432f0	0.03227514
19	0xbd8682d1	-0.0656792
20	0x3b11a293	0.0022222146
21	0xbda06192	-0.0783111
22	0xbd1eaf03	-0.038741123
23	0x3c24b8e3	0.010053846
24	0x3d250c71	0.04029507
25	0xbc8043f8	-0.01565741
26	0xbc2c7aaa	-0.010527292
27	0xbcdb24b7	-0.026750905
28	0x3d5eca64	0.054392233
29	0xbda2eac1	-0.07954932
30	0x3c07be4e	0.008285118
31	0xbd5818d2	-0.052758045
32	0xbd8e84e5	-0.06958941
33	0xbb6d20f0	-0.0036182962
34	0x3cfc2a8d	0.030782009
35	0x3cf189f8	0.029484734
36	0xbcf51a34	-0.029919721
37	0xbd4d4671	-0.050116006
38	0xbd634691	-0.05548722
39	0xbdc1bb6d	-0.09459577
40	0xbdc9fd34	-0.09862748
41	0xbc300373	-0.01074301
42	0x3d3611a9	0.044450436
43	0x3b89d2b9	0.0042060283
44	0xbb60a6a5	-0.0034279015
45	0x3d65c5c5	0.05609681
46	0xbd81dc55	-0.06340853
47	0x3d271a12	0.040796347
48	0x3d83d45e	0.0643699
49	0xbd6e9db5	-0.05825587
50	0x3ce7a478	0.028276667
51	0xbdaddef0	-0.084897876
52	0xbc27770e	-0.010221256
53	0x3b844d00	0.0040374994
54	0xbd13bfc9	-0.036071572
55	0xbd053883	-0.032524597
56	0x3db1339e	0.08652423
57	0xbd32f307	-0.0436888
58	0xbdcc8229	-0.099857636
59	0xbdaf6db7	-0.08565848
60	0xbd8c2ca3	-0.06844451
61	0xbd0e8f46	-0.034804605
62	0xbdb5852a	-0.0886329
63	0x3db2396b	0.08702358
64	0xbb177c90	-0.0023115017
65	0x3c9f2ebd	0.019431466
66	0x3bd35503	0.006449343
67	0xbcc98710	-0.024600536
68	0xbda1604b	-0.078796946
69	0xbcd935ec	-0.02651497
70	0xbd45674b	-0.04819421
71	0x3d807389	0.062720366
72	0xbd97bfc3	-0.074096225
73	0xbdea8af5	-0.11452285
74	0xbc9b78a1	-0.018978419
75	0xbc9d4cfb	-0.019201746
76	0x3bb6ea8a	0.0055821585
77	0x3d1bd2a5	0.038042683
78	0x3ce04dfb	0.027380934
79	0xbd2daa61	-0.042398814
80	0xbbe71caf	-0.00705298
81	0xbcfd6d70	-0.030935973
82	0x3d4783c8	0.04870966
83	0xbd74a5ec	-0.059728548
84	0xbda5e7dc	-0.08100864
85	0x3cf20150	0.029541641
86	0x3d388b87	0.04505494
87	0xbcec5548	-0.028849259
88	0x3cc42637	0.023944004
89	0x3b19c2de	0.0023462097
90	0x3cd8f46b	0.026483735
91	0x3d31399a	0.043267824
92	0x3c46ec81	0.012141348
93	0x3bbbd28e	0.005731887
94	0xbd917252	-0.07101883
95	0x3bff68f3	0.0077944933
96	0xbcfeed88	-0.031119123
97	0x3d8cb34a	0.06870134
98	0xbda8d9f2	-0.08244695
99	0xbc96bafe	-0.018399712
100	0xbdc7d76c	-0.09757885
101	0x3c3c8a89	0.011507639
102	0xbdd61a4e	-0.10454236
103	0x3c8dc8a7	0.017307593
104	0xbc47e1ea	-0.012199858
105	0x3b94f930	0.004546307
106	0x3d04335b	0.03227554
107	0xbdd8a19d	-0.105777
108	0xbb565399	-0.0032703637
109	0xbd661725	-0.056174416
110	0xbd1b8cd1	-0.03797609
111	0xbcbee76b	-0.023303708
112	0x3d48b1f8	0.04899785
113	0x3d5823f7	0.052768674
114	0xbdea74be	-0.11448048
115	0xbcda6437	-0.026659114
116	0x3cab3ae0	0.020902097
117	0xbcb3e59f	-0.021960078
118	0xbd2d920e	-0.042375617
119	0xbdc2f8cf	-0.09520113
120	0xbd9fe848	-0.07807976
121	0xbda64186	-0.08117966
122	0x3d73e508	0.059544593
123	0xbd9b4082	-0.07580663
124	0x3d37445b	0.044742923
125	0xbca4a14c	-0.020096444
126	0x3d1ea02e	0.038726978
127	0xbd6f87aa	-0.05847899
128	0xbe9647f1	-0.29351762
129	0xbe272c50	-0.16325498
130	0x3da0a19d	0.07843325
131	0x3da8961d	0.08231757
132	0xbc057dca	-0.008147666
133	0xbc308fe0	-0.01077649
134	0x3d1c13e5	0.03810491
135	0xbdbfbf94	-0.093627125
136	0xbd87a64b	-0.06623515
137	0x3d3ef132	0.04661674
138	0x3dcbdd54	0.09954324
139	0xbddd1fcf	-0.10797083
140	0x3d120db5	0.035657603
141	0x3d824833	0.06361427
142	0xbbbe816c	-0.005813768
143	0x3d229487	0.039692428
144	0x3d844b89	0.0645972
145	0x3d9da24b	0.076969706
146	0xbaa0d0e2	-0.0012269283
147	0xbd53cec7	-0.05171087
148	0x3db588c4	0.088639766
149	0x3cc2c16a	0.023773868
150	0x3d662241	0.05618501
151	0x3d5deb82	0.054179676
152	0x3cb4e8dc	0.022083692
153	0x3df5e8b2	0.12007274
154	0xbd6dcbc1	-0.058055643
155	0x3d1c7f10	0.038207114
156	0xbd7ffe9c	-0.062498674
157	0x3c864d94	0.016394414
158	0x3cf1ffd4	0.029540934
159	0xbb914c4c	-0.004434144
160	0xbdedc7e3	-0.11610391
161	0xbcce01fb	-0.025147429
162	0x3dc8e6cb	0.09809645
163	0x3d5ed678	0.054403752
164	0xbcfebff3	-0.031097388
165	0xbda18a46	-0.07887702
166	0x3e6c8aed	0.23099871
167	0x3dc9bafd	0.09850118
168	0x3dc92da8	0.09823161
169	0x3c1b98b4	0.0094968565
170	0xbd969886	-0.0735331
171	0xbcaa744e	-0.020807412
172	0x3c4bb571	0.012433396
173	0x3c24f731	0.010068701
174	0xbc042ed5	-0.008067806
175	0x3da265d1	0.07929576
176	0x3d752057	0.059845295
177	0x3cbb6084	0.02287317
178	0x3d5e7568	0.054311186
179	0x3e0ca901	0.13736345
180	0x3d872883	0.06599524
181	0x3d3e06c4	0.04639317
182	0x3d3ee60e	0.046606116
183	0xbd84e478	-0.064888895
184	0x3d8b8c60	0.06813884
185	0x3db41415	0.08792893
186	0x3cc7aba7	0.024373842
187	0x3c845df1	0.016158076
188	0xbd670ee7	-0.056410696
189	0x3d856704	0.06513789
190	0x3ce95df3	0.028487181
191	0x3cb346ee	0.021884408
192	0x3e0e3a23	0.13889365
193	0xbcb1496d	-0.021641457
194	0x3e978fde	0.2960195
195	0x3cb87579	0.022516953
196	0x3d483cb3	0.048886012
197	0xbe37fb8c	-0.17967051
198	0x3ddc5910	0.10759175
199	0xbba5bdb9	-0.005058017
200	0xbd514ec1	-0.051100496
201	0xbcb57988	-0.022152677
202	0x3cb80ade	0.02246612
203	0x3d8775b2	0.066142455
204	0x3e0d8032	0.13818434
205	0x3db5a1de	0.08868764
206	0x3c52acba	0.012858564
207	0xbe16a23a	-0.14710322
208	0x3cc1e7e9	0.023670154
209	0xbe7fd0bd	-0.24981971
210	0xbd2da7cc	-0.04239635
211	0xbc1cfd2c	-0.009581845
212	0x3d4160d5	0.047211487
213	0xbbd21e41	-0.006412298
214	0x3d0154e0	0.031575084
215	0x3bdec2a8	0.006798107
216	0xbdf29dd3	-0.11846509
217	0xbc4588f7	-0.012056581
218	0xbd89040f	-0.06690227
219	0x3d4d0501	0.0500536
220	0x3d52b23f	0.05143952
221	0x3ba254f9	0.004953977
222	0x3e2f5560	0.17122412
223	0x3d6eb6c2	0.05827976
224	0x3e071199	0.13190307
225	0x3cfab2fd	0.030602926
226	0xbdfab9e7	-0.12242489
227	0xbcaeb232	-0.021325205
228	0x3d673df2	0.05645556
229	0xbcd3d77c	-0.025859587
230	0xbd88d8a2	-0.066819444
231	0x3c775595	0.015096088
232	0xbd914a9e	-0.0709431
233	0xbd9ebb2f	-0.07750546
234	0x3cedcbae	0.029027786
235	0x3dff8b6b	0.12477764
236	0xbcf505c7	-0.029909981
237	0x3cf61fec	0.030044518
238	0xbd8e37d9	-0.06944246
239	0xbd631455	-0.055439312
240	0xbdae78ab	-0.08519109
241	0x3d9ebb48	0.07750565
242	0xbd405d35	-0.04696389
243	0xbd9d3d88	-0.07677752
244	0xbe70f280	-0.23530006
245	0x3d8396db	0.06425258
246	0xbcda46ac	-0.026645027
247	0x3d9e1483	0.07718756
248	0x3dc62f00	0.09676933
249	0x3d688b88	0.056773692
250	0xbd849c1a	-0.064750865
251	0x3a412541	0.0007367917
252	0x3d0fa387	0.03506806
253	0x3d176ff7	0.036972012
254	0x3da7b4fb	0.08188816
255	0xbcb97349	-0.02263798

fc2.bias f4 [64]
0	0xbdf20af2	-0.11818494
1	0xbc65ad2c	-0.014018338
2	0xbd8feb8c	-0.07027349
3	0x3dd9e951	0.10640205
4	0xbd1be3f1	-0.03805918
5	0xbdd7acc1	-0.10530997
6	0xbccbde5a	-0.024886299
7	0xbd34d8c3	-0.044152033
8	0xbc6a282d	-0.014291805
9	0xbd9c6f6c	-0.076384395
10	0xbdb14276	-0.086552545
11	0xbd360695	-0.04443987
12	0xbe0e0787	-0.13870059
13	0x3e154df4	0.14580518
14	0x3e3dce2d	0.18535681
15	0x3d543d00	0.051815987
16	0x3e3b481c	0.18289226
17	0xbda15f6c	-0.078795284
18	0x3de7985e	0.113083586
19	0xbd06c531	-0.0329029
20	0x3da8394e	0.08214055
21	0x3d5225ff	0.051305767
22	0xbd350172	-0.04419083
23	0x3e16d519	0.14729728
24	0x3e14dc17	0.14537083
25	0xbd6579ac	-0.05602424
26	0xbd367411	-0.044544283
27	0xbdbff9b8	-0.09373802
28	0x3d273e23	0.040830743
29	0xbdb14934	-0.086565405
30	0xbdd62413	-0.10456099
31	0xbd2f67e1	-0.042823676
32	0xbdbc22e8	-0.09186345
33	0x3e21e062	0.15808252
34	0xbdd58497	-0.1042568
35	0x3d8f508f	0.06997787
36	0xbcd68391	-0.026185783
37	0xbd940f06	-0.07229428
38	0x3d4f2d28	0.050580174
39	0xbde32991	-0.110919125
40	0xbad39208	-0.0016141543
41	0x3ca77f7b	0.02044653
42	0xbd5e0cc3	-0.05421139
43	0x3d45635a	0.048190452
44	0xbd669cdf	-0.056301948
45	0xbd1860f3	-0.037201833
46	0x3c735226	0.014851129
47	0xbdc0fe3f	-0.094234936
48	0x3d797049	0.0608981
49	0x3cd49b0e	0.025952842
50	0x3cfdb9a9	0.030972319
51	0x3cf46858	0.029834911
52	0xbdc56bb4	-0.09639683
53	0x3c9346bc	0.017978065
54	0x3ca344aa	0.019930203
55	0xbdfbf6b5	-0.12302915
56	0x3dc167f7	0.09443658
57	0xbd95182a	-0.072799996
58	0xbe14291b	-0.14468805
59	0xbd1f9fea	-0.038970865
60	0x3d2d8487	0.042362716
61	0x3c77f20c	0.015133392
62	0x3d6bfed8	0.057616085
63	0x3bb6b8f3	0.005576247

fc3.weight f4 [10, 64]
0	0x3cb2921e	0.02179819
1	0x3de071ca	0.109592035
2	0xbec659d2	-0.38740402
3	0x3dd57dd7	0.10424393
4	0xbe25d5d2	-0.16194847
5	0xbebe31c4	-0.37147343
6	0x3df98d91	0.12185205
7	0x3e133726	0.14376506
8	0xbda92254	-0.08258501
9	0x3dcac511	0.09900869
10	0x3cf68e56	0.030097168
11	0xbdaf4287	-0.08557611
12	0x3e26b415	0.16279633
13	0xbdea63cc	-0.11444816
14	0xbe851158	-0.25989795
15	0x3e14ee02	0.14543918
16	0x3e46bba2	0.19407514
17	0x3eafde86	0.3434946
18	0xbdcf2b6a	-0.101157025
19	0xbe492e7f	-0.19646643
20	0x3d36e132	0.044648357
21	0xbe00f1e8	-0.1259228
22	0x3e145aa1	0.14487697
23	0xbc20c522	-0.009812625
24	0xbe9ee871	-0.31036714
25	0xbd3e9d34	-0.04653664
26	0x3d69c58c	0.05707316
27	0x3c6b21e8	0.014351346
28	0xbe4b5176	-0.19855294
29	0xbcd9cd4f	-0.026587157
30	0x3e526f6f	0.20550321
31	0x3cfc7b99	0.030820655
32	0x3dcfdd9f	0.10149693
33	0x3e1cb1e1	0.1530223
34	0xbee7ce44	-0.45274556
35	0xbd8f387d	-0.06993196
36	0x3cb4dc56	0.02207772
37	0xbea13247	-0.3148367
38	0x3dd04a8f	0.10170471
39	0x3d17292b	0.036904495
40	0xbdd80793	-0.1054832
41	0xbe545fc3	-0.20739655
42	0xbe6162ae	-0.220103
43	0x3df45f3d	0.11932228
44	0xbd309df8	-0.0431194
45	0x3d21f9dd	0.03954493
46	0x3cfa5de3	0.030562347
47	0xbd58389e	-0.05278837
48	0x3d63f125	0.055649895
49	0xbeedb637	-0.4642808
50	0x3e190f18	0.14947164
51	0xbe36914a	-0.17828861
52	0xbec66cd8	-0.38754916
53	0xbe5cb049	-0.21551622
54	0xbda982e6	-0.0827692
55	0x3d2bec7b	0.041973572
56	0xbdf2b104	-0.11850169
57	0xbd016978	-0.031594723
58	0x3e1236b8	0.14278686
59	0xbdaf5536	-0.085611746
60	0xbd99a43a	-0.07502027
61	0xbc8f157e	-0.017466303
62	0x3e1a8e5f	0.15093373
63	0xbdf9ba71	-0.12193764
64	0xbcc16b0f	-0.02361062
65	0xbeb24535	-0.34818426
66	0x3d98269a	0.07429238
67	0xbea1076c	-0.31450975
68	0xbe9c9812	-0.3058477
69	0xbe8fb23d	-0.28065673
70	0xbe25c0c0	-0.1618681
71	0xbe34d3d8	-0.17658937
72	0x3e3cdca0	0.18443537
73	0xbe009e71	-0.1256044
74	0x3d1d0b95	0.038341124
75	0xbe2d7c73	-0.16942005
76	0x3dd1bd1b	0.10241147
77	0xbdc9174f	-0.09818899
78	0xbdaef358	-0.08542508
79	0xbe0e8331	-0.13917233
80	0xbe469a61	-0.19394828
81	0xbe75713d	-0.23968978
82	0x3e26abaf	0.1627643
83	0x3e20d3e9	0.15705837
84	0xbd9ce745	-0.07661299
85	0xbd7aac4a	-0.061199464
86	0xbe72dbbd	-0.23716636
87	0x3e055a8a	0.13022819
88	0xbe1e92e0	-0.15485716
89	0x3e779793	0.24178915
90	0xbc079f8b	-0.008277784
91	0x3c08e258	0.008354746
92	0xbdc2fff6	-0.09521477
93	0x3dde9083	0.10867407
94	0x3e55f6ac	0.20894879
95	0xbf0ba04f	-0.54541487
96	0xbdb71d4a	-0.08941133
97	0xbeddaefa	-0.4329756
98	0xbe14723e	-0.14496705
99	0xbd617351	-0.055041615
100	0x3e4394c7	0.19099723
101	0xbe0c01e4	-0.13672596
102	0x3a4dd781	0.0007852242
103	0x3e22689a	0.15860215
104	0x3dd3442e	0.103157386
105	0xbd6864cb	-0.05673675
106	0x3d2a2d59	0.041547153
107	0x3d8933b6	0.06699316
108	0x3de6590b	0.11247452
109	0x3e434336	0.19068608
110	0x3e302bf7	0.17204271
111	0xbe7284fd	-0.23683544
112	0xbdc2b1a9	-0.09506542
113	0xbe38fc96	-0.18065104
114	0xbb31cb5b	-0.0027129266
115	0xbeaa67ff	-0.33282468
116	0x3dd10c5b	0.10207435
117	0x3d83d350	0.06436789
118	0xbc9e00f8	-0.019287571
119	0x3d3b2d46	0.045697473
120	0x3cb3b3a2	0.021936242
121	0xbe48efee	-0.19622776
122	0xbe6f0033	-0.2333992
123	0x3e131dc7	0.14366828
124	0x3cb477f5	0.022029856
125	0xbd73fb75	-0.05956598
126	0xbea3ed38	-0.3201692
127	0x3d53e3fd	0.0517311
128	0x3d6c7135	0.05772515
129	0xbd27d0dc	-0.04097067
130	0xbe525419	-0.20539893
131	0x3c5b0df1	0.013370023
132	0x3e0196ce	0.12655184
133	0xbe06428b	-0.13111322
134	0x3d2ea9b1	0.0426423
135	0x3c535a3e	0.012899933
136	0x3d792fda	0.06083665
137	0xbdf1fd76	-0.11815922
138	0xbdb4c0a3	-0.08825805
139	0xbe7757af	-0.24154542
140	0x3a23cd6b	0.0006248566
141	0xbe2a5f0f	-0.16637824
142	0xbe99349d	-0.29922953
143	0xbda1dcee	-0.07903467
144	0xbd530a52	-0.051523514
145	0xbe6fc5a7	-0.23415242
146	0xbd305102	-0.043046005
147	0xbda53aa4	-0.080678254
148	0x3dabd933	0.08391037
149	0xbd1509a5	-0.03638615
150	0xbcee2040	-0.029068112
151	0xbd547bd4	-0.051875904
152	0x3dbce96d	0.0922421
153	0x3dcddc63	0.10051801
154	0xbdae462b	-0.08509477
155	0xbd4a0bce	-0.049327664
156	0x3e0fed85	0.1405545
157	0xbd122323	-0.03567804
158	0x3eadb83c	0.33929622
159	0x3d66225e	0.05618512
160	0xbc2e6008	-0.010643013
161	0x3d4bc44d	0.049747754
162	0xbd88452b	-0.06653818
163	0xbcffe6f5	-0.031238059
164	0xbd86b78d	-0.06577978
165	0x3e1bf73f	0.15231036
166	0xbe0effd1	-0.13964774
167	0xbe7e3909	-0.24826445
168	0x3e308768	0.17239153
169	0x3e2de72e	0.1698272
170	0x3e4423b3	0.19154243
171	0xbe97f3b0	-0.29678106
172	0x3e3e0d68	0.18559802
173	0xbd49e52b	-0.049290817
174	0x3e241ca1	0.16026546
175	0x3dcf0ac4	0.10109475
176	0xbcd4e6c2	-0.02598894
177	0x3e188cbe	0.14897439
178	0x3c8f2122	0.017471854
179	0x3e80740d	0.2508854
180	0xbea2285b	-0.31671414
181	0x3d2dd758	0.042441696
182	0x3d8d6c6e	0.06905447
183	0xbdd664b6	-0.10468428
184	0xbe35905d	-0.17730851
185	0x3e0af21b	0.13568918
186	0xbdca9b5e	-0.09892915
187	0x3bb31de2	0.005466209
188	0xbd8149c7	-0.063129
189	0xbdb20615	-0.08692566
190	0xbe0bc348	-0.13648713
191	0x3e2e8cfd	0.1704597
192	0xbd0fab1f	-0.035075303
193	0x3be6d132	0.007043981
194	0x39544780	0.00020244531
195	0xbc52ce07	-0.012866504
196	0xbdeff5fc	-0.1171684
197	0xbe96741a	-0.29385453
198	0xbdc87b75	-0.097891726
199	0x3df29b65	0.118460454
200	0xbe784a4e	-0.24247095
201	0x3dc82168	0.09771997
202	0xbdfab303	-0.12241175
203	0xbe9b6811	-0.30352834
204	0xbe11be53	-0.14232759
205	0x3e06ae18	0.13152349
206	0x3db66e2d	0.08907733
207	0xbd735edd	-0.05941664
208	0xbe191b6d	-0.14951868
209	0xbe8dadcd	-0.27671662
210	0xbe212f02	-0.15740588
211	0x3c44325d	0.011974898
212	0xbe092ae7	-0.13395272
213	0x3c5d7113	0.0135157285
214	0x3b77fc99	0.003783977
215	0xbd6bf2d8	-0.05760464
216	0x3e23839d	0.15968175
217	0xbeea68c6	-0.4578306
218	0xbcbf4613	-0.023348844
219	0x3d8ea39a	0.06964798
220	0xbe2f1c8b	-0.17100732
221	0xbd5b5274	-0.05354543
222	0xbd3406b1	-0.043951694
223	0xbd5ea1fe	-0.054353707
224	0xbd28726c	-0.041124746
225	0x3dce5e5c	0.10076591
226	0x3e6eb2f4	0.23310453
227	0x3dd3b1e4	0.10336664
228	0xbe165904	-0.14682394
229	0xbd83a38e	-0.0642768
230	0xbe9f9623	-0.31169233
231	0x3e784933	0.24246673
232	0x3dcedb18	0.101003826
233	0x3e239e30	0.15978312
234	0x3d8461dd	0.064639784
235	0xbb7c67f7	-0.0038514116
236	0xbdaf9bdb	-0.08574649
237	0x3cca0e06	0.02466489
238	0x3e11bead	0.14232893
239	0x3d15ab0f	0.036540087
240	0xbcf6ba44	-0.030118115
241	0x3e270bc0	0.16313076
242	0xbe2fccce	-0.1716797
243	0xbe6e3f69	-0.23266377
244	0x3d956b29	0.0729583
245	0xbe6d5761	-0.23177864
246	0xbda54fc9	-0.080718584
247	0xbe14f89e	-0.14547965
248	0xbe910aa7	-0.2832844
249	0xbda6e22a	-0.08148606
250	0x3d3fb1a0	0.046800256
251	0x3de78d74	0.11306277
252	0x3ebbf265	0.3670837
253	0x3daa5d27	0.08318549
254	0x3e76218e	0.24036238
255	0xbdbf62bf	-0.09345006

fc3.bias f4 [10]
0	0xbe48bed8	-0.19604051
1	0x3ca16b9f	0.019704638
2	0x3c8e04ba	0.017336238
3	0x3d37214b	0.044709485
4	0x3d8fcbd9	0.07021303
5	0xbd216769	-0.03940526
6	0xbd675019	-0.05647287
7	0xbe023d9e	-0.12718818
8	0x3e446782	0.1918011
9	0xbad476b1	-0.0016209689
